IID/reflectance_filtering/checkpoint/Direct_Reflectance_Prediction_Net.pth (torch_old, 63730 bytes, 36 tensors)

layer1.0.weight f4 [32, 3, 1, 1]
000000 40 70 d1 be 08 d4 e4 be 39 47 8a be 7a 1c 2e be
       -0.40905952 -0.44693017 -0.27007464 -0.1700305
000010 9e fb 2c be c0 5e 91 3e 33 0e 6a be ea 19 ee 3d
       -0.1689286 0.283926 -0.22856979 0.116260365
000020 74 06 94 3d b3 ae dc 3e 5d bd f1 3e d9 99 c0 bd
       0.07227793 0.43102035 0.47214785 -0.09404344
000030 d0 74 1c be e2 5d d1 3d a5 c9 ca be 65 78 ad bd
       -0.15278935 0.10222985 -0.39606968 -0.08470229
000040 a2 67 87 3e 86 2a bd be 48 52 d8 3e bb e9 a7 3e
       0.26446253 -0.36946505 0.42250276 0.3279551
000050 c1 91 42 3d df a9 a9 be ef b4 58 3e e7 5e aa 3d
       0.047502283 -0.33137414 0.2116277 0.083188824
000060 97 6c 96 be ce ec 9f be 67 0f bd be d0 65 d1 3d
       -0.29379722 -0.31235355 -0.36925814 0.10224497
000070 e1 c7 bd be 76 12 28 3e c1 01 ab be 1d 62 b9 be
       -0.37066558 0.16413292 -0.33399776 -0.36207667
000080 ec be 0d be 79 34 ad be be 04 93 3e a5 97 f7 3e
       -0.13842362 -0.33829096 0.28714556 0.48357883
000090 28 0a 69 3e b6 0c a5 be 40 60 b4 3e a2 e3 51 3e
       0.2275778 -0.3223626 0.35229683 0.20496991
0000a0 8d 07 6b 3e 8d c5 7c be 1f e4 3a be e4 00 8d 3e
       0.22952099 -0.24684735 -0.18251084 0.27539742
0000b0 ae e4 88 be 5d 64 e0 be 28 8e bb bc db 80 bd be
       -0.2673697 -0.4382657 -0.022894934 -0.3701237
0000c0 58 27 ed 3e cb b9 60 3e 1b 9f b7 3e a3 1a c6 3e
       0.4631908 0.21945874 0.35863575 0.38692197
0000d0 dd 4f 92 3d d3 f2 0d 3e 8f 0e 41 be dd e6 3d 3d
       0.07144139 0.13862161 -0.1885321 0.046362747
0000e0 63 88 cf 3e 20 64 75 be 77 74 a1 be 33 c8 21 bd
       0.40533742 -0.23963976 -0.31534168 -0.039497565
0000f0 e9 b0 58 3e dc 09 05 3d 51 1f 7b 3d f4 5b 60 bd
       0.21161236 0.032480106 0.061309163 -0.054775193
000100 56 18 59 3c 1b e5 c6 3e b3 fc ce be bb e6 9d bd
       0.013250431 0.3884667 -0.4042717 -0.07710024
000110 af 9c 8e 3e 07 d5 8b be 34 7d 86 be 3e 7b c4 be
       0.27853915 -0.27310964 -0.26267397 -0.38375276
000120 6c 5f 83 3e d7 62 bd 3e 62 7b 88 3e ee 25 54 3e
       0.2565874 0.3698947 0.26656634 0.20717594
000130 1c 8c 84 be ac d0 e4 3e 2a eb 6d be 2d 20 0d be
       -0.25888145 0.44690454 -0.23234239 -0.13781805
000140 b6 90 64 be 3e 67 34 3d b0 b6 e2 be 96 9a 58 be
       -0.22320828 0.044043772 -0.44280005 -0.2115272
000150 2f 35 b3 be a6 50 dc be 0b be b8 be 11 b6 57 3e
       -0.35001513 -0.4303028 -0.3608249 0.21065547
000160 10 38 d6 bc 1e 07 64 3d 43 8b c9 3e 9b c2 08 be
       -0.02614978 0.05567085 0.3936406 -0.13355486
000170 d0 b6 a4 bc b3 1f aa bd 7f b8 8b be f8 d0 04 be
       -0.020106703 -0.083068274 -0.27289197 -0.1297034

layer1.0.bias f4 [32]
000000 9d bd 3b 3e 21 81 b7 3e 29 f7 5c be 94 1a 02 3f
       0.1833405 0.35840705 -0.21578659 0.50821805
000010 42 f9 b2 3d 6e 22 5b be 57 50 02 be f2 f9 eb 3d
       0.087389484 -0.21399853 -0.1272596 0.11522283
000020 de 6b 8d 3d 23 0e 53 3e 9b 9b 36 be bf e5 74 3e
       0.0690534 0.20610861 -0.17832796 0.23915766
000030 78 c7 84 3e 87 cd b5 be 48 0b 74 3e e5 03 a9 be
       0.25933433 -0.35508367 0.23832428 -0.33010784
000040 53 91 82 be dd f3 e2 3e af a9 93 be d1 8f 6e 3e
       -0.255015 0.44326678 -0.28840396 0.23297049
000050 9d cb de bd 6f 3a b8 3c 6d e8 f3 3e b9 92 a7 3d
       -0.1087868 0.0224888 0.47638264 0.08182282
000060 49 53 ed 3e 06 54 08 bb 0b 2b b3 bd cf d8 61 be
       0.46352604 -0.0020802035 -0.08748444 -0.22055362
000070 9e 15 c3 be f9 6f c9 3e 7f 99 ba be 60 ad 27 3d
       -0.3810243 0.3934324 -0.36445233 0.040936828

layer2.0.weight f4 [32, 32, 1, 1]
000000 66 6b 92 be d7 a8 6e 3e 1a 06 1b bd 9d f9 6a 3e
       -0.28597564 0.23306595 -0.037847616 0.22946782
000010 86 65 bd bd 74 f9 a0 3e 50 ea 85 3e bf ff 28 3e
       -0.0924788 0.31440318 0.2615533 0.1650381
000020 0c c8 61 be 1b 56 47 be 1e a4 76 3c 1d 01 4f be
       -0.22048968 -0.1946644 0.015053777 -0.20215268
000030 78 5a 2d be 49 c7 a6 3e f7 1a 99 3d 1a 5f 9c bd
       -0.16929042 0.32573918 0.07475846 -0.07635327
000040 1e 15 70 3e db 31 78 3e f7 37 a0 3e 92 d3 67 be
       0.23445556 0.24237768 0.31292698 -0.22639301
000050 79 ef 82 3e d7 00 37 be 8c 5f 6b 3d 97 14 46 3e
       0.25573328 -0.17871414 0.057464167 0.19343792
000060 ce d7 7f bd c9 dc 0d be 74 a0 2c be 55 28 28 be
       -0.062461667 -0.13853754 -0.16858083 -0.16421635
000070 f8 21 6e bd ee 06 20 be 07 c1 f6 3d 5a e1 f9 bd
       -0.058137864 -0.15627643 0.12048536 -0.122011855
000080 15 e2 44 3e ce 9c da 3b 22 67 28 be 00 f6 1d be
       0.19226868 0.0066715246 -0.16445592 -0.15425873
000090 57 c8 1e be 99 b9 76 bd d1 3a b5 be 53 9c ce bd
       -0.15506111 -0.060235593 -0.35396436 -0.1008841
0000a0 f2 42 41 be 08 5f f3 3d 09 70 dc 3d d7 d0 45 be
       -0.18873194 0.1188336 0.107635565 -0.19317947
0000b0 59 b5 06 be c8 7d 36 3d ea 3b c2 3b e8 d2 98 3e
       -0.13155116 0.044553548 0.0059275525 0.2984841
0000c0 54 eb 90 be c1 88 1c be c8 db 73 3e b8 0e 31 3e
       -0.2830454 -0.15286542 0.23814309 0.17290771
0000d0 5d 8c 18 be b5 b2 dd 3d b0 fe 27 3e b6 c6 ab bc
       -0.14897294 0.10825101 0.1640575 -0.020968776
0000e0 6d f1 58 3e f1 16 2f bc c6 3a 2d be fc 1c b2 3e
       0.21185847 -0.010686622 -0.16916952 0.34787738
0000f0 ab c2 bb 3e 3b 86 a5 3c 70 01 90 bd 5a 46 22 bd
       0.36671957 0.020205608 -0.07031524 -0.039617874
000100 8e cf 58 3d 05 23 49 be 11 d4 00 be 65 e2 90 be
       0.052932315 -0.19642265 -0.12580897 -0.28297725
000110 64 e6 95 3e 6f 1e af 3e 91 b8 0c 3e 19 d6 b0 3b
       0.29277337 0.34202906 0.13742281 0.005396616
000120 d9 5d 2a 3e 6f 6a eb 3d 6c 02 0a 3e 4c 59 d7 3d
       0.16637363 0.1149491 0.13477486 0.10515079
000130 18 3a 2a 3e ba b1 ef 3d 70 56 97 3d ee 79 0f 3e
       0.16623724 0.117038205 0.073895335 0.14011356
000140 9c ad 7d 3e 55 0a 7c 3e 28 2e 1e bd c7 10 82 bd
       0.24773258 0.24613316 -0.038618237 -0.06350856
000150 08 f6 dd 3b 6a e3 91 be 58 b9 12 be 2e a2 a1 3c
       0.006773714 -0.28493816 -0.14328516 0.019730654
000160 a8 96 89 3e 3e 72 1f 3e eb f6 a5 3e a8 85 90 3e
       0.26872754 0.15570924 0.32414946 0.28226972
000170 68 3c 3e 3e e9 8c 9a 3d 20 ae ab 3e 1f 95 a1 3e
       0.1857773 0.07546408 0.33531284 0.31559083
000180 ab dd 82 3e 54 9e 27 3b bc 4f a0 be 9b 82 05 be
       0.25559744 0.0025576549 -0.31310833 -0.13038103
000190 7f 21 03 3e af a5 63 3e 8b 83 03 3e d3 99 43 3e
       0.12805746 0.22231172 0.12843148 0.19101648
0001a0 42 19 6e 3e e0 f2 24 3c 28 50 c5 bd c3 f4 8d be
       0.23251823 0.010067672 -0.09634429 -0.277258
0001b0 6d 0c 9e be fe 70 66 3e f1 ea 4e be 2d bf 32 3e
       -0.30868855 0.2250404 -0.2020681 0.1745574
0001c0 f5 05 20 3e b5 b4 44 be 36 2f 55 be 6a f5 ad 3d
       0.15627272 -0.1920956 -0.20818791 0.08494075
0001d0 d9 4a 0e 3e 1a 77 67 3c 52 32 2d be 8f d9 7e be
       0.1389574 0.014127517 -0.16913727 -0.2488768
0001e0 26 02 28 3e bc 40 6e 3e 63 9e bd 3d a1 f6 52 be
       0.1640707 0.23266882 0.092587255 -0.20601894
0001f0 f8 9f bc bd af c9 a6 be a0 9e 72 bd 69 c5 de 3b
       -0.09210199 -0.32575747 -0.059233308 0.0067984355
000200 2c a7 f6 bd 72 2a 56 3e 3c 36 4d 3e 29 b9 2f 3e
       -0.12043604 0.20914629 0.2004022 0.17160477
000210 72 f4 bb be c1 12 62 3e c5 44 22 be bd 18 7f be
       -0.36709934 0.22077467 -0.15846546 -0.2491178
000220 4c 6e 79 bd 56 16 be bd 7e 44 b1 3d ca e8 0f 3e
       -0.060896203 -0.09281604 0.08655642 0.14053646
000230 b0 64 ee 3c 48 e8 97 3d 7b 20 5b bd 6d ff b5 3c
       0.029100746 0.07417351 -0.053497773 0.022216523
000240 2d 91 fd 3d 3d 84 52 3e c3 09 98 3d 15 13 58 be
       0.12381206 0.20558257 0.07423737 -0.21101029
000250 70 01 4d bc 82 fa 04 be 88 52 ee 3d 98 08 6d be
       -0.01251255 -0.12986186 0.11636835 -0.2314781
000260 b7 6c 83 3e bd db 50 3d 63 17 8d be 6a 9e aa bd
       0.2566888 0.05099081 -0.27556905 -0.08330996
000270 a0 cf 0b 3d e5 2f f5 3d 57 fb 33 3e 66 7d f2 bc
       0.034133554 0.11972026 0.17576347 -0.02960081
000280 4f b0 68 3c 26 be 15 bd dd c7 2d bd 9f c0 b1 3e
       0.0142021915 -0.036558293 -0.042426933 0.3471727
000290 ad c6 c1 3d aa 91 96 bd 5b 8e cf bd 31 f5 83 3e
       0.094617225 -0.07352002 -0.10134574 0.25773004
0002a0 bd d8 b8 be 68 99 17 bc 3b af 06 3d a0 e6 8d 3e
       -0.36102858 -0.0092528835 0.032881957 0.27715015
0002b0 d3 ad 58 be 2b ba 00 3e 43 b8 50 3d 0d f5 6e 3d
       -0.21160059 0.12571017 0.050956976 0.058339167
0002c0 93 28 bd 3e 38 e4 93 3e 4d 81 00 3d 2f d6 0f be
       0.36945018 0.28885055 0.03137331 -0.14046548
0002d0 90 93 cb 3d dc a3 b1 3e 6b c5 16 be 04 b8 8c be
       0.09940255 0.34695327 -0.14723746 -0.27484143
0002e0 d0 3f 6e 3e a9 dd 5a be 5d 58 50 be 7e 84 a5 be
       0.2326653 -0.21373619 -0.20346208 -0.32327646
0002f0 5c b4 30 3d 63 a9 57 3e 18 56 4e be 72 de b3 3d
       0.043140754 0.2106071 -0.2015003 0.087826625
000300 56 bb 4f 3e 11 40 16 be af ca 04 3d 49 69 2b 3e
       0.20286307 -0.14672877 0.032419857 0.16739382
000310 a0 45 a7 3d da d1 76 be 3c 64 26 38 d8 1f 78 3e
       0.08167577 -0.2410349 3.9670835e-05 0.24230897
000320 2d 57 b9 be ec 23 c4 bd 02 2d ea bd 55 85 b4 3e
       -0.36199322 -0.09577164 -0.11434366 0.35257974
000330 7f 0f 08 bd 85 99 33 3d a4 dc 3d 3e ee 4c 2f 3e
       -0.033217903 0.04384758 0.18541199 0.1711919
000340 6c 68 9c 3e c5 c7 a2 3e 2e f9 93 3e 3b e6 40 3e
       0.30548418 0.31793037 0.28901047 0.18837826
000350 be 89 1b 3e f9 ca 21 3d 72 75 07 3e 0f 6d af be
       0.15189263 0.03950021 0.13228396 -0.34262893
000360 fa af a5 3e 22 b4 db 3d 22 ed 22 be 7b 65 50 bd
       0.32360822 0.10727717 -0.15910771 -0.05087803
000370 c9 12 a5 bb 79 d2 34 3e f1 33 7e bd 2d 48 3e 3c
       -0.0050376398 0.17658414 -0.062061254 0.011613888
000380 8e fd 26 be fe 27 6e be 24 4a 4c bc e0 62 82 be
       -0.16307661 -0.23257443 -0.012468848 -0.2546606
000390 83 43 9b 3e 6d 5a 81 be fb 27 5c 3e bc 2c 07 bd
       0.30324945 -0.25264302 0.21499626 -0.033001646
0003a0 4a 73 5e be 51 cd 90 3e 5c ae 4d 3e 5d 14 8e 3e
       -0.21723667 0.28281644 0.20086044 0.2774991
0003b0 18 54 5f 3e a7 9a 96 3e 95 a2 e8 bd d8 07 5e 3e
       0.21809423 0.29414865 -0.11359135 0.2168268
0003c0 35 4d 00 be 9d b4 58 bc f0 cb 75 bd fb d9 57 3e
       -0.12529452 -0.013226655 -0.060008943 0.21079247
0003d0 81 fe 9d 3d b7 f1 32 3d 1e bf 23 3e df 44 77 3e
       0.077145584 0.04368755 0.15990874 0.24147366
0003e0 0c d6 30 be 53 82 8c 3e 42 5a 4d be 3a 13 50 3e
       -0.17269152 0.2744318 -0.20053962 0.20319834
0003f0 0d cc 9e 3d be 31 3f 3c 1f 12 be 3e 01 6f ce 3c
       0.07753763 0.011669574 0.371232 0.025199415

layer2.0.bias f4 [32]
000000 91 55 39 bd d3 97 ed 3d 33 25 04 3e 96 69 73 3c
       -0.045247618 0.11601224 0.12904815 0.014856717
000010 bd ee 60 bd 2a 37 bf bd 6f e6 4a 3e 9c ce e1 3d
       -0.05491518 -0.093366936 0.19814466 0.11025736
000020 ae 20 bc 3d 9b 07 1f 3d c2 22 b2 bd 42 fb 56 bd
       0.09185921 0.038825613 -0.08698036 -0.052485712
000030 01 19 e3 3c b3 2d 95 3d e0 0c 3a bd 97 4f e8 3d
       0.027721884 0.07284107 -0.045422435 0.113433056
000040 9c 5f 12 3e 42 d4 82 bc 4b 04 b9 3d 39 8d 70 3e
       0.14294285 -0.015970353 0.09034022 0.23491372
000050 6f e1 f6 bd ab de 34 be 0d 55 10 bd 9c 78 06 bd
       -0.12054717 -0.17663066 -0.03523736 -0.032829866
000060 7c ed 00 3e 19 39 b2 bc ec 31 9a 3d 33 ed 1d 3e
       0.12590593 -0.021755742 0.07529053 0.15422516
000070 eb 3e c1 bd 84 49 f1 3d f9 90 3a 3e 24 cd 21 3e
       -0.09435829 0.117816 0.18219365 0.15800911

layer3.0.weight f4 [32, 32, 1, 1]
000000 78 17 78 3d 4c 60 b6 bd a6 d8 c1 3d de 7b 18 3e
       0.060569257 -0.08905086 0.094651505 0.14891002
000010 72 43 f7 3d a1 50 75 3e 48 15 36 bb 3f 21 6d 3e
       0.12073411 0.23956539 -0.002778368 0.23157214
000020 31 f5 8f 3e 5f fb 08 be 2f b4 a0 3e aa a2 fa bd
       0.28116754 -0.1337714 0.3138747 -0.12238057
000030 d3 22 44 be cf d7 82 be 84 ef 84 3e 3d 61 bc 3e
       -0.1915391 -0.25555274 0.25963986 0.36792937
000040 f0 56 9d 3e a2 1d 3e 3e c6 27 37 be 2f cf a1 bd
       0.3073039 0.18565992 -0.17886266 -0.07900845
000050 4d db a7 3e 6b 6b 90 bd c1 14 99 3d fb ee a1 be
       0.327845 -0.07051738 0.074746616 -0.3162764
000060 58 fc 83 3d ea 3d 08 3e e2 b3 aa 3e 0f 0f f6 bd
       0.06444615 0.13304868 0.33340365 -0.12014591
000070 89 1b ba be 3d 0c 72 be b3 d7 39 3d cb c1 1f bd
       -0.36349133 -0.23637481 0.045371722 -0.039003175
000080 2a 42 f3 bd f9 90 ac 3d 52 ba 1d 3e 28 a4 97 bd
       -0.11877854 0.08426089 0.15403107 -0.07404357
000090 e8 65 09 bd 71 80 8f 3d 70 e0 b1 3e 44 3d 1e 3e
       -0.03354445 0.0700692 0.34741545 0.15453058
0000a0 05 62 eb bd f7 f5 fa 3d 34 a9 15 3e 19 84 00 3e
       -0.11493305 0.12253945 0.14615327 0.12550391
0000b0 20 cc 0b bc 9b 9e 6f be 71 ab 9e 3e 13 ae 67 3e
       -0.008532554 -0.23400347 0.30990174 0.22624998
0000c0 99 0f fe bd da 6a 1b be aa 2c 5d 3d ad cd 30 be
       -0.12405319 -0.1517748 0.053997673 -0.17265959
0000d0 d9 78 90 3d 22 f4 5a bd 21 f7 a1 be 4b ec 3f 3d
       0.070543 -0.05345548 -0.31633857 0.046856206
0000e0 10 47 1e 3e 02 88 91 be e4 fe 71 3e 9b 52 57 be
       0.15456796 -0.28424078 0.2363239 -0.21027605
0000f0 64 c6 59 bb 89 93 20 3e 45 6a 1f 3e b3 27 0a 3e
       -0.0033229822 0.1568128 0.15567882 0.13491707
000100 66 c4 bf 3e af c8 84 3e 5b e2 b5 bd 58 bb f9 3d
       0.37454528 0.2593436 -0.088810645 0.12193936
000110 31 5e 2e be aa 6d 42 3e 1b 50 64 be 8a 1c 82 bd
       -0.17028119 0.18987146 -0.22296183 -0.063531
000120 81 a1 f3 bd c4 0b 5c 3e e2 52 1f 3e 60 08 ed 3d
       -0.11896039 0.21488863 0.15558961 0.11573863
000130 0c 94 ad 3d 2c 90 c4 bd 2c 8f d5 3d e1 16 d4 3d
       0.08475503 -0.09597811 0.104276985 0.10355926
000140 3d b7 4e 3e f0 f0 ab 3b 32 ea 33 3e be b9 ad bb
       0.20187087 0.005247228 0.17569807 -0.005301683
000150 29 7a 22 bc 99 d9 8c bd f8 e3 97 3e 6b c7 b3 3c
       -0.009916821 -0.06877441 0.29666114 0.021945676
000160 cc f3 06 be 75 62 9d be 59 ac 5e 3c 06 f2 89 be
       -0.13178939 -0.3073918 0.013590896 -0.26942462
000170 a9 d4 56 bd 41 64 e8 3c 3f d6 1a 3e bd ed 0b 3e
       -0.052448902 0.028368117 0.15120791 0.13664909
000180 f3 29 79 3e 2d 6e 21 be d0 9a b7 bd bb 99 05 be
       0.24332409 -0.15764685 -0.08965075 -0.13046925
000190 8a e5 e7 3d 47 44 2a 3e 2e e5 8b be 3d 68 26 be
       0.11323078 0.16627608 -0.27323288 -0.16250701
0001a0 d3 a2 c0 3d ab ba 92 bd 55 d8 fe bd 5f 83 cb 3d
       0.09406056 -0.0716451 -0.12443606 0.099371664
0001b0 3f 83 8f bd bd 1f bd bb a2 3c 83 bd 05 1d 28 be
       -0.07007455 -0.0057716058 -0.06408049 -0.1641732
0001c0 fa 30 bb be 2f 69 97 be 0b ae 26 bd 4b 70 6f bd
       -0.36560804 -0.29572436 -0.040693324 -0.0584567
0001d0 c1 5a 65 3d bd 7c 7a be da 6e 81 3d 27 40 f5 3d
       0.055994753 -0.24461646 0.063199714 0.11975127
0001e0 16 b2 03 3e 53 c9 67 3e b9 89 cd bd 1b 18 31 bd
       0.12860903 0.22635393 -0.10036034 -0.04323588
0001f0 1f a9 7a 3d 6f d4 3c 3e ef a5 11 be 9d 8b 55 3e
       0.061196443 0.18440412 -0.14223455 0.2085404
000200 4a 27 f8 bd 7d ca 2d 3e 08 f5 5a 3e 00 0b af 3d
       -0.12116869 0.16971774 0.21382535 0.0854702
000210 db 19 85 be d1 f9 11 3e 5e 41 c0 3d 47 a2 25 be
       -0.2599629 0.14255454 0.09387468 -0.16175185
000220 2d 67 67 bd bf 13 80 be fe 3b 88 3d 00 9b 9e be
       -0.05649488 -0.25015065 0.066520676 -0.3097763
000230 3f 34 0a 3e 90 35 fc 3d 6c 31 5e 3e 47 d0 82 bb
       0.13496493 0.12314904 0.2169854 -0.0039921138
000240 9a c4 08 3d 00 0c d4 3c 57 d2 85 3e 55 69 0e be
       0.03339062 0.025884628 0.2613704 -0.13907368
000250 1b 05 83 be bc dd 8d 3e 28 ee a8 be 22 23 13 3e
       -0.25589833 0.27708232 -0.329942 0.14368871
000260 3a 00 4f 3d 1e e0 82 3d 85 ba 81 bd 3a 41 5a be
       0.050537325 0.06390403 -0.06334404 -0.21313944
000270 04 d0 6c bd 28 87 30 bd 9f 8b 1c 3d 23 e9 69 be
       -0.057815567 -0.043097645 0.03821909 -0.22842841
000280 81 2d 6b 3d ea 76 79 3c d7 c9 2b 3e d0 df 8a bd
       0.057416443 0.015226105 0.16776215 -0.0678097
000290 32 ee 06 3c 5d e6 4c be e5 6d 0b be 2e 62 9f 3e
       0.008235501 -0.20009752 -0.1361614 0.31129593
0002a0 a8 3d 16 3d 70 3c 9f 3e ad f9 0c be de 02 63 be
       0.036679894 0.31100798 -0.13767119 -0.22169062
0002b0 cc 21 51 3e 13 a3 33 be b6 33 f1 bd e5 7c 77 be
       0.20423049 -0.17542677 -0.11777441 -0.24168737
0002c0 d3 18 94 bd 63 69 24 be 26 9e 6f 3e 77 25 aa 3e
       -0.07231297 -0.16055827 0.23400173 0.33231708
0002d0 9a 59 6d bd 40 1f 03 be dd 6d 49 bd 7c 5f 6f 3e
       -0.05794678 -0.1280489 -0.04917704 0.23376268
0002e0 f5 e0 71 3d 23 05 ac 3e 27 a2 8b be 98 1d 2f 3d
       0.059052426 0.3359767 -0.2727215 0.042752832
0002f0 ee 3b 7e 3e b6 7f f0 bd 00 f9 3c be c9 21 ac 3e
       0.24827549 -0.11743109 -0.18454361 0.33619526
000300 90 37 e0 3d 3b 42 b2 3d df d0 78 3e 28 21 71 bd
       0.10948098 0.08704039 0.24298428 -0.05886951
000310 f3 93 12 be c5 29 33 3e b2 5e 18 3e a6 02 93 3e
       -0.1431425 0.17496403 0.14879873 0.28712958
000320 9e cc a4 3e 79 0e ac bd f1 36 75 3e 29 34 e7 bd
       0.3218736 -0.08401198 0.2394674 -0.11289246
000330 96 a7 aa bc f1 44 15 3b 36 4d 80 3c 77 2b db bd
       -0.020831864 0.0022776688 0.015661817 -0.1070165
000340 e2 da 79 3d c6 7a 2f be f5 54 c1 3e ed fa aa be
       0.06099976 -0.17136678 0.3776013 -0.33394566
000350 dc f7 ba 3d b9 4c eb bd dd b2 8a be e1 67 77 3e
       0.09129307 -0.11489243 -0.27089587 0.2416072
000360 66 3f 50 bd f4 dc 48 3c 4d 25 5f bb 97 62 29 be
       -0.05084171 0.012259711 -0.0034049333 -0.16541515
000370 26 93 9b be fe 11 1c 3e 21 5e 91 3d c6 de 39 be
       -0.30385703 0.15241238 0.07098032 -0.18151388
000380 22 44 c0 3d a9 3b 64 3c e3 71 66 3e ce cb c7 bd
       0.09387995 0.01393024 0.22504382 -0.097556695
000390 d2 98 a6 bd 13 01 6d 3e d2 22 36 3e da 5f 5c 3d
       -0.08134617 0.23144941 0.1778672 0.05380235
0003a0 f0 d5 50 be 9e 66 47 3e bb ec b9 be 97 81 bb 3d
       -0.2039411 0.19472739 -0.36313424 0.09155577
0003b0 45 8d a4 3e 53 82 79 3e c2 2f 60 bd 9b bf 4e be
       0.3213903 0.24366121 -0.054733045 -0.20190279
0003c0 35 76 c3 be 13 9f f6 ba 59 bd 7d be 43 cf af 3e
       -0.38176122 -0.0018815718 -0.24779262 0.34337816
0003d0 21 9e 5c be d5 56 0b be 11 bc 18 bd 62 57 a1 3e
       -0.21544696 -0.13607343 -0.03728873 0.3151198
0003e0 65 31 ff bc ce 72 4e be dd ba ec 3d 18 8e 4e 3e
       -0.031151483 -0.20160982 0.11559079 0.20171392
0003f0 ea 78 3d 3e 1a 3d 98 3e a1 15 38 bd ec d0 92 3d
       0.18503156 0.29734117 -0.044942502 0.07168755

layer3.0.bias f4 [32]
000000 7a f2 f8 bb 6b 0f 00 be 8a 72 0f be 9c 2b bf bd
       -0.007597265 -0.12505881 -0.14008537 -0.0933449
000010 2f 38 32 be a5 81 d9 3d 17 d7 90 3d cc 76 cf bd
       -0.17404245 0.10620431 0.07072275 -0.101300806
000020 a3 e3 9d bd 02 64 68 bd 92 a9 12 be 8c be 81 bd
       -0.07709434 -0.056736 -0.14322498 -0.06335172
000030 63 68 0d bc 34 20 15 3d 62 b0 93 3d 14 b6 8d bb
       -0.008630845 0.036407664 0.07211377 -0.004324684
000040 18 c5 24 3e 39 ff f1 bd 10 6c e8 3c ce e3 e0 3d
       0.1609081 -0.11816258 0.02837184 0.1098095
000050 95 3f 95 3d 8c 2c f8 bd ba 97 c5 3d dc e8 55 3e
       0.07287518 -0.12117872 0.0964808 0.2088961
000060 e2 a4 2a bd 01 83 f8 3d 16 19 19 3e f5 c6 56 3e
       -0.04166115 0.12134362 0.14950976 0.20974334
000070 f8 91 00 3d 03 7d 1f 3d 97 d8 af 3c e7 96 2c bd
       0.031389207 0.03893758 0.021465583 -0.0421361

layer4.0.weight f4 [32, 32, 1, 1]
000000 f1 ff e3 3d de 28 78 3e 25 d6 8e 3e dd 71 24 be
       0.11132801 0.2423434 0.27897754 -0.1605906
000010 29 5a 26 be 0f 69 f4 3d fc 05 ed bd 63 d0 a4 3e
       -0.16245331 0.11934101 -0.11573407 0.32190236
000020 13 8d 71 be f3 24 49 3e 5a 84 47 3e 3f 77 56 be
       -0.23588972 0.19643001 0.19484082 -0.20943926
000030 98 e6 1b 3d 3d 2b 89 3e 5f 5d 65 3e d7 f6 47 3a
       0.03806171 0.267908 0.223989 0.00076280296
000040 c6 1b 15 be c0 52 9b be db 5b b4 bd 42 f7 53 3e
       -0.14561376 -0.3033657 -0.088065825 0.2069979
000050 b9 31 42 bd 92 7d 26 be da 21 00 3e f7 eb f5 3d
       -0.0474107 -0.16258839 0.12512913 0.12007897
000060 9d 1f 2b 3e 02 5e dd bd b8 cf 08 be f9 2d b9 be
       0.16711278 -0.10808946 -0.13360488 -0.36167887
000070 50 e6 9f be 23 7a a9 3e 52 24 d7 3b 34 5b 82 be
       -0.31230402 0.33100995 0.006565609 -0.25460207
000080 a1 31 ad be b3 2d e0 bd b6 2b c1 bd 12 67 65 bd
       -0.33826926 -0.109462164 -0.09432165 -0.0560065
000090 f3 b0 46 be f5 c4 71 3e b5 55 c2 bb c3 c6 6e 3e
       -0.19403438 0.2361029 -0.005930627 0.23318009
0000a0 2c ac ef 3d e4 7b 25 3c b1 e1 21 be df ba af 3a
       0.11702761 0.010100339 -0.1580875 0.0013407132
0000b0 a9 e9 a3 3c 87 5b 0a 3e c9 70 10 bb c8 70 6c be
       0.020008879 0.13511477 -0.0022039881 -0.23089898
0000c0 7b a4 e5 3b d7 b7 0b be f1 c5 a9 3e fa 5f b6 3e
       0.007008133 -0.13644348 0.3315883 0.356201
0000d0 3b ce 0a be 76 83 b8 3e 0f 07 13 be c4 6c b1 3e
       -0.13555233 0.36037797 -0.14358161 0.34653294
0000e0 f0 e4 55 bc 08 ec 98 bd ff a0 71 3e f0 fa 4c 3e
       -0.013055071 -0.074668944 0.23596571 0.200176
0000f0 28 0c 99 be ea 0d 22 3e 36 24 bd 3e d4 95 9b 3e
       -0.29892087 0.1582562 0.3694169 0.30387747
000100 03 15 17 be b9 4a 06 3b 39 c2 8b 3e a3 a7 bb 3e
       -0.14754109 0.0020491316 0.27296618 0.36651334
000110 ab cc 60 3d 40 69 3f be 68 ad 3a 3e c3 e3 98 3d
       0.054882687 -0.18692493 0.18230212 0.07465317
000120 11 4c 35 3e 9d a0 a4 bc 3c 34 5d be 5f a5 5a be
       0.17704798 -0.020096118 -0.21601957 -0.21352147
000130 51 01 bb bd bc 95 88 3e 36 28 e5 3c 80 2e a9 bd
       -0.091311105 0.26676738 0.027973276 -0.08260822
000140 bc c1 8b 3d 9f 29 1a be e6 c6 f8 3d 59 9b a4 3e
       0.06824061 -0.1505494 0.12147312 0.3214977
000150 a8 e1 09 be 90 7c f9 bd 9b 74 66 be ec e6 57 3e
       -0.13464987 -0.121819615 -0.22505419 0.21084183
000160 7f 69 87 3d 81 47 a0 3d 6d 0a 69 be bc 25 22 3e
       0.06611919 0.07826138 -0.22757883 0.15834707
000170 dc cb 90 be ac 68 53 be 05 5b 0f 3e 7f 80 46 3e
       -0.28280532 -0.20645398 0.13999565 0.19384955
000180 a3 f8 ef 3c f3 0a 8d be 5b 0a 88 3e 07 f6 dc 3d
       0.029293364 -0.27547416 0.265704 0.107891135
000190 05 6f 1c be 50 a1 72 be 22 cc d9 3d 81 df 33 be
       -0.15276726 -0.23694348 0.10634638 -0.17565729
0001a0 8b 46 2b 3d 9f 88 f2 3d 19 81 92 3e f1 74 3e 3d
       0.041815322 0.11842465 0.2861412 0.046498243
0001b0 12 3c ec bd 9d ba ab bd 04 c8 b3 3c 14 37 3c be
       -0.11534895 -0.08385203 0.02194596 -0.18380386
0001c0 e5 a9 1f be c9 62 6c 3e 0a 53 33 be 27 eb 9b bd
       -0.15592153 0.23084559 -0.17512146 -0.07613211
0001d0 74 73 54 bd 97 fb 8b be 1d b4 ac be cb 66 4e be
       -0.051867917 -0.27340385 -0.33731166 -0.201564
0001e0 71 71 6d 3e 35 cd 50 3e d3 ae 88 3e 91 19 98 bd
       0.23187806 0.2039078 0.2669588 -0.074267514
0001f0 95 07 08 3d f6 bc 81 be 1c 3c 92 be 7d d3 89 bd
       0.033210356 -0.25339478 -0.28561485 -0.06729791
000200 1d 74 08 3e b5 06 a1 be 67 92 2c 3c f8 5a 91 3e
       0.13325544 -0.3145043 0.010532952 0.28389716
000210 50 24 40 3e ef 7b 7b 3e e8 c4 c4 bd 03 a7 0e 3e
       0.18763852 0.24558996 -0.096078694 0.13930897
000220 b1 6a 20 be 95 61 66 be af 11 91 be 09 b7 88 3e
       -0.156657 -0.22498162 -0.28333804 0.26702145
000230 89 b8 25 3e db 28 c5 3d ee 04 29 be 63 78 b6 3d
       0.16183676 0.09626933 -0.16505787 0.08909681
000240 61 43 81 3e 46 f1 c1 bd e9 03 1a 3e 3e 0a d1 bd
       0.2524672 -0.094698474 0.15040554 -0.10207032
000250 39 5a 8d 3a 8e 9f 02 3e 48 6b a2 bc b0 e6 68 3d
       0.0010784335 0.12756178 -0.019826546 0.056860626
000260 15 f1 8e bc 1a d1 26 be 96 11 25 3e 5d 1a a5 be
       -0.017448941 -0.16290703 0.1611999 -0.32246676
000270 ef b5 6a be fa ca 58 3c a2 04 9f 3e 97 d2 55 be
       -0.22920965 0.013231987 0.31058222 -0.20881115
000280 fb 5a 5c 3e 85 7b fb bc ce 10 b5 bd b7 4b 61 be
       0.21519081 -0.030698547 -0.08841096 -0.22001539
000290 30 34 94 3e 9a 17 87 3b 2b 24 0c bc 98 6e 7c be
       0.28946066 0.0041226866 -0.008553545 -0.24651563
0002a0 de 1b 9f be 16 d7 67 3e 8f 82 23 be c8 65 8b be
       -0.31075948 0.22640643 -0.15967773 -0.2722609
0002b0 fe 3e d9 3d 8a f0 54 3e f3 b3 69 3d ca e7 9e 3e
       0.10607718 0.20794883 0.05705638 0.31036216
0002c0 9d b2 77 3e 86 81 e7 bd 2f 8b 40 be 11 61 6d bd
       0.2418923 -0.113040015 -0.18803094 -0.057953898
0002d0 b2 4f 14 3e f5 d7 00 3d 60 09 ac 3d 4c bb 95 be
       0.14483526 0.031455953 0.08400226 -0.2924446
0002e0 fc f8 88 3e 20 0c 77 be 9a f8 86 3d 3a ca 33 3e
       0.2675246 -0.24125719 0.06590386 0.17557612
0002f0 c6 bf 4e be 18 14 15 3d 8b 1e 6f 3e bb 12 4a bd
       -0.20190343 0.036396116 0.23351495 -0.04933427
000300 93 27 9c 3e d1 0d bb 3d 71 29 82 be 14 65 a8 3d
       0.30498943 0.09133495 -0.25422242 0.08222404
000310 66 0e b4 3d 38 77 31 3e 2f a7 36 bc 87 f8 86 3d
       0.08791809 0.17330635 -0.011148258 0.065903716
000320 b8 92 48 3e df 78 00 be 49 07 f4 3d 65 d7 cf bd
       0.19587219 -0.12546109 0.11915452 -0.10148505
000330 18 ff 96 bd ea 84 a0 be 98 09 80 be bb 6c 07 bc
       -0.07372874 -0.31351405 -0.2500732 -0.008265669
000340 0b 6b 96 bd 6f f3 a5 3e 0f 29 fb bd 23 47 3e 3e
       -0.073446356 0.32412288 -0.12263691 0.18581824
000350 2b 8f 3c 3b 11 07 75 3d a4 ab 99 3e 58 a9 1f 3e
       0.0028771858 0.059821192 0.30013764 0.15591943
000360 1b b5 d3 3d 64 1f a7 be 2e 8d 0f 3e 2f 2b a3 3d
       0.103372775 -0.32641137 0.140187 0.07967221
000370 29 81 bf 3e 0e 3b f4 3d 93 5a 37 be e7 10 6b 3e
       0.3740323 0.11925326 -0.17905645 0.22955666
000380 da 9b 3a be d3 6b 8d 3e 76 09 ab 3d 6f c4 94 bd
       -0.18223515 0.27621326 0.08351414 -0.07264029
000390 14 60 79 be cf 10 53 be e5 be 3d be 11 92 96 3e
       -0.24353057 -0.2061188 -0.18529852 0.29408315
0003a0 12 8e 54 3d 4f d2 a0 3e e2 fc 54 be b8 16 18 3e
       0.0518933 0.31410453 -0.20799592 0.14852417
0003b0 b2 af bc 3e 6f fc 45 3c ea 4a 6f 3c 97 f6 a4 3d
       0.36852795 0.012084111 0.014605263 0.08054846
0003c0 62 6e cf 3d 55 c7 82 be 07 e0 e1 bd d6 66 93 3e
       0.10128476 -0.25542703 -0.11029058 0.28789395
0003d0 0e 84 39 3e b6 f6 f4 bd 0e 7d af bd 23 89 85 3c
       0.18116781 -0.11961119 -0.08568774 0.016300743
0003e0 7d 5d 1b 3b 16 cd 6f 3d a3 cd af 3e 4a 95 fc 3d
       0.0023706846 0.058545195 0.34336576 0.12333162
0003f0 55 1c e4 bc 98 0d 40 be 9f ac a4 3e 13 f4 67 be
       -0.027845541 -0.18755186 0.3216295 -0.226517

layer4.0.bias f4 [32]
000000 c8 51 49 3e cd 7a be bd 64 3d e6 3d 40 0a d9 bc
       0.19660103 -0.09300766 0.11242178 -0.026494145
000010 97 3e 1b 3e af e7 1e be a1 96 01 3e b2 f5 b3 bd
       0.15160595 -0.15518068 0.12655117 -0.08787097
000020 d5 a3 10 be 44 4c 43 3d 3a 6e 40 3e 00 89 df 3c
       -0.14124997 0.047680154 0.18792048 0.027287006
000030 8b f1 2e 3b 08 36 fe bd 19 61 3e 3e 46 cc bc 3c
       0.0026694264 -0.124126494 0.18591727 0.023046624
000040 cc 92 35 bb 6f 03 26 3e e4 2b 22 3d 52 ec 86 3d
       -0.0027705906 0.16212247 0.03959264 0.06588043
000050 63 c3 9a 3b 7f 04 99 3d a9 9b db 3c cf b7 f4 3d
       0.004722999 0.07471561 0.026807623 0.11949121
000060 94 1d 64 3e eb b5 03 be 81 17 3a 3e a4 89 36 3d
       0.22276908 -0.12862365 0.18173029 0.044564858
000070 87 76 27 bd fa 17 93 bd 4e b0 cf bd 62 a1 ae bd
       -0.04088452 -0.071823075 -0.10141049 -0.08526875

layer5.0.weight f4 [32, 32, 1, 1]
000000 0c 54 87 be 5a d4 65 be 8e 6e aa be d9 fb 9f bd
       -0.2643131 -0.22444287 -0.33287472 -0.07811708
000010 23 f6 30 3e 8f 1f 81 3d 6c fb a4 bd 0a a8 b4 3d
       0.17281394 0.063048474 -0.080557674 0.088211134
000020 fe 64 97 3e 60 a7 4e 3e c7 d9 72 be be 90 35 3d
       0.29569238 0.20181036 -0.23715888 0.04432749
000030 20 46 8c 3e 8b 44 41 bd 67 24 a6 be 8a cd bc 3e
       0.2739725 -0.04718451 -0.32449648 0.36875564
000040 ae 86 71 be c4 75 07 3e 6d bc ab bc 4d be 63 3e
       -0.23586532 0.13228518 -0.020963872 0.22240563
000050 7a bf 1b 3e a8 3a af bd 03 f8 8a 3e 4e c2 e9 bd
       0.15209761 -0.0855611 0.27142343 -0.11414014
000060 4a f1 06 3e b1 af ea bd 07 30 92 3c d7 83 c8 bd
       0.13177982 -0.11459292 0.017845167 -0.097907715
000070 d9 0d 7a 3e 05 4d 97 be 5b 56 7c 3e 01 24 a5 be
       0.24419345 -0.2955095 0.24642317 -0.3225403
000080 f9 01 84 3a 3c 4a 3f 3e ed c2 45 be f5 ca 11 be
       0.0010071389 0.18680662 -0.1931264 -0.14237578
000090 8e 1c f7 3d c0 21 21 be 54 71 50 3d 01 05 f4 3d
       0.12065993 -0.15735531 0.050889328 0.11915017
0000a0 2c a2 6a 3e 05 ab 2c 3e 10 37 91 3e 92 5e 69 be
       0.22913426 0.16862114 0.28362322 -0.22789982
0000b0 e3 6c 70 3e 26 4e 07 be be 34 47 bd 7d 02 74 3e
       0.23479037 -0.13213405 -0.048634283 0.23829074
0000c0 85 0d 33 3e 23 98 0d be 59 67 0f 3e 23 37 98 bd
       0.17485626 -0.13827567 0.14004268 -0.074323915
0000d0 9a 14 a3 3d 5f ab 4f 3e b7 98 1f bd d1 b5 97 3c
       0.07962914 0.20280217 -0.038964 0.018519314
0000e0 0d a1 76 3d fc 53 05 be e9 f5 e9 3b dc 65 2e be
       0.060212184 -0.13020319 0.0071399105 -0.17031044
0000f0 6e 39 27 be 43 98 65 3e 40 97 5f 3d 50 58 8a 3d
       -0.16330501 0.22421364 0.054587603 0.067551255
000100 6d 8d 41 be d0 4b 23 be 3a c8 15 bd c5 1a a7 3e
       -0.18901606 -0.15946889 -0.036567904 0.3263761
000110 7f c0 8b be e8 0a 53 bc 32 68 80 bd 3c 67 ae 3d
       -0.272953 -0.012881018 -0.06269874 0.08515784
000120 1e 85 12 3d 02 85 d6 3c 8e f0 5f 3e cc 92 6c 3e
       0.03577148 0.02618647 0.21869108 0.23102874
000130 30 dc 86 3e 75 c9 4a 3b c5 d4 ec 3d 76 a6 b3 3e
       0.26339865 0.0030942832 0.1156402 0.35087937
000140 8a 0b 4f 3e b4 d2 9d be 7d 39 f4 bd 7a 3f 44 3d
       0.20219246 -0.30824816 -0.119250275 0.0479121
000150 37 b8 33 3e 0f 4c 9c be f4 7f 57 3e 6d 61 08 be
       0.17550741 -0.30526778 0.21044904 -0.13318415
000160 44 90 23 3d 0d 30 81 3e 0b 68 4c 3e e6 e4 82 3e
       0.039932504 0.25231972 0.19961564 0.2556526
000170 3f 9c b4 3e 16 7d 52 be 1d d1 37 be 47 e5 29 be
       0.35275456 -0.20555529 -0.17950864 -0.16591369
000180 46 fc 6b be a3 8d b4 bb e9 de 7f be cf 4e d0 3d
       -0.23045453 -0.0055100485 -0.24987377 0.101712815
000190 fd cf 7f be 44 f7 4b 3c 80 78 ab 3e a0 42 3d be
       -0.24981685 0.012449089 0.33490372 -0.18482447
0001a0 70 dc 35 be 8d 07 0f be 74 79 47 be 88 b4 84 3d
       -0.17759871 -0.13967724 -0.19479924 0.06479746
0001b0 2e db b6 3c 36 88 07 3d 34 f2 10 be 84 ca b7 3e
       0.02232131 0.033088885 -0.14154893 0.35896695
0001c0 10 5f 1a 3e 4a 50 94 bd b2 55 a1 3e be 27 ae 3d
       0.15075326 -0.072418764 0.31510693 0.08503674
0001d0 3c 6a 7b 3e 1b 1f 4f be 1a 99 93 3e f0 d4 86 bd
       0.24552244 -0.2022671 0.28827745 -0.06583583
0001e0 d1 c5 72 3e 08 04 fc bd 72 a3 fd 3d 0c a4 86 be
       0.23708273 -0.123054564 0.1238469 -0.26297033
0001f0 70 63 15 3e 4f 82 a3 be 1b 81 ef bd 6e 3f 19 bd
       0.14588714 -0.31935355 -0.11694547 -0.037414007
000200 ee 72 2e 3e 4b 07 b7 3e 84 08 a3 3d 34 d6 10 bd
       0.1703603 0.35747752 0.079606086 -0.03536053
000210 80 5a 38 be f8 57 d3 3d b8 2a 30 be 90 5d 12 3e
       -0.18003273 0.10319513 -0.17203796 0.14293504
000220 af 04 68 be ce 57 6d be c6 07 a1 3d 3a 10 19 bd
       -0.22658037 -0.23178026 0.07862811 -0.03736899
000230 88 02 20 be 81 55 89 3d be 69 87 3e ef 4d 74 3e
       -0.15625966 0.06705762 0.26447862 0.23857854
000240 4b 21 29 be 81 ad b3 3c 39 3e 80 3e 13 4b e5 3c
       -0.16516607 0.021933319 0.25047472 0.0279899
000250 31 f8 0e 3e 97 47 0b 3e 84 ad e0 3c de 9e 18 be
       0.13961865 0.13601528 0.027426489 -0.14904353
000260 a2 b2 80 3d fc 28 81 be 48 c3 3b be 2c 93 74 3e
       0.062840715 -0.2522658 -0.18336213 0.23884267
000270 de c9 5b bc 1b 07 9f bd ab d4 80 be 52 49 81 3d
       -0.013414828 -0.07765027 -0.25162253 0.06312813
000280 1e 59 98 be 09 5c 6f be c9 15 0c be 11 b6 82 bd
       -0.2975549 -0.23374952 -0.13680185 -0.06382383
000290 24 55 17 be c4 d7 fb 3c f1 0a 44 be 27 8b 87 be
       -0.14778572 0.030742534 -0.19144799 -0.26473352
0002a0 50 6f 38 3d 4a b0 d7 3c 8e fe 91 3e 16 ff 96 3e
       0.04502803 0.026329178 0.28514522 0.2949149
0002b0 99 f5 e7 bd 2e 2f 2f be 27 27 58 3e 28 b5 0e 3e
       -0.11326141 -0.17107841 0.21108685 0.13936293
0002c0 a7 9d 19 3c d8 54 1d be f8 bc 3b be 1c 37 34 be
       0.009375966 -0.15364397 -0.18333805 -0.17599148
0002d0 55 bc 7d be 26 a2 51 3e d8 c8 36 bd 27 39 35 be
       -0.24778874 0.20472011 -0.044625133 -0.17697583
0002e0 a8 0c 2d 3e 79 7c 0f be bf 21 46 3e 59 f7 2b be
       0.16899359 -0.14012326 0.1934881 -0.16793574
0002f0 ed 61 2e be 8b 47 53 be 64 39 31 be 24 c6 25 3d
       -0.17029543 -0.2063276 -0.17307049 0.040472165
000300 c0 6e 34 bd bf 0c 30 bd 3f 36 53 be f0 3f 54 be
       -0.044050932 -0.042980906 -0.20626162 -0.20727515
000310 39 85 44 be 2e 28 4c bd 5c 56 1e 3d 1e d6 59 3e
       -0.19191445 -0.049843006 0.038656577 0.21273085
000320 73 ed 6f bd fe 28 b8 bd 3a 47 4f be 21 15 c6 3d
       -0.05857606 -0.08992194 -0.20242015 0.09671999
000330 1e ff 65 3e c3 1b 45 be 12 36 a1 be 03 09 07 3e
       0.224606 -0.19248872 -0.31486565 0.13187031
000340 c4 45 87 be 92 02 8d be 97 b3 d2 3d 07 6b b7 3d
       -0.26420414 -0.27541023 0.1028816 0.08955961
000350 75 bd 91 3e 4d 55 9b be a9 08 29 3e 3d 9c e0 bd
       0.28464857 -0.30338517 0.1650721 -0.109673
000360 92 73 1d 3d 2f 48 84 be ea 6b 2d 3e c0 b8 64 3d
       0.038440295 -0.25836322 0.16935697 0.055840254
000370 d0 56 3c bb 0e 22 21 3e 18 a5 44 be c8 ea 1e 3e
       -0.0028738268 0.15735647 -0.19203603 0.1551925
000380 2f 3c 83 3e 46 8a b3 3e bc 10 5b be b9 81 09 3c
       0.25631854 0.35066432 -0.21393102 0.008392745
000390 4c 39 a4 3e 86 32 62 3e 4c 6a 52 3e 04 2f f0 bd
       0.32074964 0.22089586 0.20548362 -0.117277175
0003a0 ab 47 e0 3d e4 24 69 be 6e 0e f5 3c 64 70 bf bd
       0.109511696 -0.22767979 0.029914107 -0.09347609
0003b0 c6 d8 8d 3e cd 67 7f bc 8c 9d a1 3e e2 56 7b be
       0.27704448 -0.015588713 0.3156551 -0.24544862
0003c0 8a 8d 2c 3b e1 4b fa 3d 05 f5 c1 3d 89 7f 80 3e
       0.002632948 0.12221504 0.09470562 0.25097302
0003d0 0e 78 a3 be 00 38 19 bc 59 0d d4 3c 65 e1 a5 3e
       -0.31927532 -0.00935173 0.02588527 0.32398525
0003e0 12 ee 35 3e ee 31 7a be 8b f6 48 3e f8 99 65 bd
       0.17766598 -0.24433109 0.19625299 -0.05605504
0003f0 01 4a 1a bc 9c 4b b9 3e ac 7f 9f be 36 b8 a3 bd
       -0.009417058 0.36190498 -0.31152093 -0.0799412

layer5.0.bias f4 [32]
000000 3b 4a ee 3c 8b 45 0f be df ec 58 3d 42 f9 34 bd
       0.02908813 -0.13991372 0.052960273 -0.044183023
000010 53 dc 31 3e 28 ec bc bc 37 f8 2e be 35 99 2d 3e
       0.17369203 -0.023061827 -0.17086874 0.16952975
000020 89 a8 26 39 09 9d bc 3d c6 b1 d8 3d ea 65 13 3e
       0.00015893778 0.092096396 0.105807826 0.14394346
000030 6e cd 85 3c 1a 0c 97 3d f8 7c e7 bd b0 a7 08 be
       0.016333308 0.07375355 -0.11303133 -0.13345218
000040 e8 48 2c 3e 15 a2 05 bd b9 2f b5 bd de e5 c7 bd
       0.16824687 -0.032625277 -0.08846993 -0.097606406
000050 7c fb b5 bd b3 d4 bd 3c 84 e7 24 3e 14 4a 32 ba
       -0.088858575 0.023172712 0.16103941 -0.00068011996
000060 bd 8c 56 3e 2f 98 82 3d ee a5 9a 3d 77 da d7 3d
       0.20952125 0.06376683 0.0755118 0.10539716
000070 20 58 f0 3c 88 d9 83 3d 3e 6a 66 3c 52 e8 ba 3d
       0.029338896 0.06437975 0.014063416 0.09126343

last_conv.0.weight f4 [3, 160, 1, 1]
000000 06 56 d2 3c 05 a3 d5 bd ac 45 ff 3d 03 f7 27 bb
       0.025675785 -0.10431484 0.12464461 -0.0025629408
000010 3c 51 95 3d ca 79 c8 bd da 6b be 3d 3e 6c 26 be
       0.07290885 -0.097888544 0.09297915 -0.16252229
000020 53 4b bd bd 18 8f 38 be 27 ca 45 3d ed e8 82 bc
       -0.092428826 -0.18023336 0.04828849 -0.015980208
000030 e3 68 0c 3e 67 77 c1 bd 1f 8c cb bd ce be 2c 3d
       0.13711886 -0.09446602 -0.09938835 0.042174153
000040 8f 2e cb bc a0 5f 42 bd 12 9e b4 bb c7 95 13 be
       -0.024802474 -0.047454476 -0.0055120075 -0.14412604
000050 2e 4b 5f 3d 59 d1 17 3e ec cb 49 bd c8 bd 03 bb
       0.054515056 0.14825954 -0.04926674 -0.0020102132
000060 53 76 b6 3d 6f 4f 05 3e 45 c5 e9 3d 3a a1 69 be
       0.08909287 0.13018583 0.11414579 -0.2281541
000070 2f 20 56 bd 40 cb 19 bd 43 76 e4 bb 3b 63 4a bd
       -0.052276786 -0.03754735 -0.0069721057 -0.04941104
000080 cd 16 a2 3d fc 3e fb bd 4f c8 d8 bc 19 d3 af 3c
       0.07914505 -0.12267873 -0.026462702 0.021462964
000090 06 59 b0 3d 87 3d f6 3c a7 6e 18 3e 18 24 e5 bc
       0.0861073 0.030058635 0.1488596 -0.027971312
0000a0 5b 54 da bd 45 3e a4 bd 8f 80 66 3d 8c ea 24 3d
       -0.10660621 -0.080196895 0.056274947 0.040262744
0000b0 d4 e2 1b bd ee 60 f1 bd 50 3f fe bd 00 c6 f0 3d
       -0.038058117 -0.11786066 -0.1241442 0.117565155
0000c0 5f bb fd 3d 76 c8 c2 3d 37 5c b2 bd bf f9 6b be
       0.12389254 0.09510891 -0.08708995 -0.2304449
0000d0 38 b0 91 bd f9 4f 03 be 0c b7 f4 bd de 06 58 3d
       -0.07113689 -0.12823476 -0.11948976 0.052740924
0000e0 07 71 c9 bd 2e fa 0a 3e 37 60 45 3e 63 94 c9 3d
       -0.098360114 0.13571998 0.19274984 0.09842756
0000f0 c1 42 4a 3d fc c4 62 3c 6a a4 df 3d a7 ae eb 3c
       0.049380068 0.01384091 0.10920031 0.028769804
000100 1d 23 4e 3e 46 7c 6a 3e 10 cc 4b 3e 8d 91 57 be
       0.20130582 0.22898969 0.19902062 -0.21051617
000110 a2 8a 46 3d 17 61 34 be 58 60 59 3e 86 93 37 be
       0.048472054 -0.17615162 0.21228158 -0.1792737
000120 98 4a 1e be 2e 07 04 be a1 7e 0b bd 99 03 11 3d
       -0.15458143 -0.12893364 -0.03405631 0.03540382
000130 18 95 66 be 3d 5b 3d 3d 61 1a 2d 3e 3c b0 4a 3d
       -0.22517812 0.04622959 0.16904594 0.049484476
000140 1a f1 2e 3d 49 ab d6 bd ea cc 2e bc 97 8d 49 be
       0.0427104 -0.10481889 -0.0106689725 -0.19682918
000150 c4 fc 7d 3d 86 f9 3d be 1f 1f 4c 3e f2 fa 02 bb
       0.062008634 -0.18552217 0.19933747 -0.0019986
000160 a1 d3 38 be 4c a9 d9 bd 38 bf f6 bd d1 3e 62 3e
       -0.1804948 -0.10627994 -0.12048191 0.22094275
000170 ca 54 a8 bb 48 5a d6 3d 9f c8 12 3e 4a 0a 89 bd
       -0.005137061 0.104664385 0.14334343 -0.066914156
000180 7b 4d 9c bd 58 4d 5c bd 31 ed 19 bd dc c5 34 be
       -0.07631966 -0.0537847 -0.03757972 -0.17653602
000190 8a ca dc bd 28 02 3a 3e de 8f e0 3d 4a 35 76 be
       -0.10780819 0.18164885 0.109649405 -0.24043766
0001a0 85 a0 4f bd d7 5b 2c be 8d 83 60 3e 79 2b 87 bd
       -0.050690193 -0.16831909 0.21925183 -0.066000886
0001b0 19 ac 1e be 2a f7 58 3e e8 dd 55 be 1c 2b ec bd
       -0.15495338 0.21188036 -0.20885432 -0.1153166
0001c0 e5 47 00 be 79 b5 05 be 5b ab 04 3d a4 53 c6 3d
       -0.12527426 -0.13057508 0.03238998 0.09683922
0001d0 b2 97 33 3e c9 21 20 be 54 63 73 3e f8 0e 09 be
       0.17538336 -0.15637888 0.2376836 -0.13384616
0001e0 cd 8b 5e be 15 1f a2 3c 11 5c 9a 3d ce 68 24 3d
       -0.21733017 0.019790212 0.075370915 0.040139012
0001f0 5c 09 6c 3e e5 d5 8d 3c 9f 23 96 3c 2b d0 e9 3c
       0.23050445 0.017313907 0.018327532 0.028541645
000200 3e 3f 04 3e 74 a8 49 bd 3f df 3d 3e a3 43 75 3d
       0.1291475 -0.049232915 0.18542193 0.059878957
000210 c3 6c 16 be 7d c4 07 3e f2 dc 3a 3c 8d 21 f7 3c
       -0.14689927 0.13258548 0.0114052165 0.030167365
000220 b2 bb 0a 3d 96 a6 30 be 69 55 4a 3e 17 a4 8d 3d
       0.033870406 -0.17251047 0.19759144 0.06916063
000230 7f 2a ef bd d7 be de bc 29 34 13 be 46 fa 71 bb
       -0.11678027 -0.027190609 -0.14375366 -0.0036922856
000240 b1 26 35 3e 01 a3 97 3c 1d 9f f7 3d dd 58 fe 3d
       0.17690541 0.018510344 0.12090895 0.12419293
000250 3c 99 1f bd 6e 68 c7 bd 30 9e 0a 3d 13 46 8a 3c
       -0.038964495 -0.09736715 0.033842266 0.016879117
000260 a2 1e 12 bd d3 cd 32 3e 41 16 1c 3d fa ef 04 be
       -0.035673745 0.17461328 0.03810716 -0.12982169
000270 87 cd 24 3d 97 ca 50 be 6f 86 d9 bd d0 e7 32 be
       0.04023507 -0.20389782 -0.10621344 -0.17471242
000280 8d c2 9d bd 31 21 b2 bd 0f 91 25 be cd 43 16 bd
       -0.07703123 -0.08697737 -0.16168617 -0.036685754
000290 87 9b 62 3d 30 7c 69 be ff 0c 26 bd a6 4a 35 3d
       0.055324104 -0.2280128 -0.040539738 0.044260643
0002a0 8a d0 00 be 70 ce 2e be bf 16 c4 3d ec f9 86 3c
       -0.12579551 -0.17070937 0.09574651 0.016476594
0002b0 28 33 86 3d 16 33 75 bd 76 d6 e8 bd ba d0 27 be
       0.06552726 -0.059863172 -0.1136903 -0.16388217
0002c0 81 81 64 3e 9e de 20 bd 0a a2 bb bd ca 63 d4 3d
       0.22315027 -0.039274804 -0.09161766 0.10370596
0002d0 7a 6a 0a be 7f 15 c2 bc 69 9a 8c bc be 23 89 bc
       -0.1351718 -0.02369189 -0.017163472 -0.016740676
0002e0 c0 1b 82 bd b7 3c 2e 3e f0 2f 3b 3d 22 39 7b be
       -0.06352949 0.17015348 0.045700014 -0.24533513
0002f0 16 15 81 bd f7 1d 62 3e d1 56 cc 3d 18 d5 2c be
       -0.0630285 0.22081743 0.099774964 -0.16878164
000300 a1 9e 7a 3e c1 13 7a be 63 33 27 3b c4 9a c6 bd
       0.24474575 -0.24421598 0.0025512807 -0.09697488
000310 fd 7c 62 3c 61 97 d0 bd de 74 4f 3e 11 d0 66 be
       0.013823745 -0.10185123 0.20259425 -0.22540309
000320 e1 65 7f 3e 37 53 67 be 9a 38 68 3e e1 d7 41 be
       0.24941207 -0.22590338 0.22677842 -0.18930008
000330 7f 0f ba 3c 69 1d 1b 3d 9b 62 de 3a 63 e9 85 3d
       0.022712467 0.037869845 0.0016966643 0.065386556
000340 c1 ad 58 3e f4 39 61 3e 67 24 74 3e 2c db 2e be
       0.21160032 0.21994764 0.23842011 -0.17075795
000350 86 27 aa 3c 40 d7 9f 3d cf e7 4b be c6 d3 68 3d
       0.0207708 0.078047276 -0.19912647 0.056842588
000360 b8 39 3a 3d 5c 3d b6 3d 59 6d 3d bd eb 82 e0 bd
       0.0454652 0.08898422 -0.04624686 -0.109624706
000370 47 3c e0 bd 67 03 f1 bd d1 92 31 3e 3b e8 b2 3b
       -0.10948997 -0.11768227 0.17341162 0.005459813
000380 b1 47 3a 3b 27 76 07 3d ee 7e 4d 3e 87 0a 0e be
       0.002842408 0.033071663 0.20067951 -0.13871203
000390 b7 20 1f bd 95 21 37 be a6 2e 08 3e 20 2e 36 bd
       -0.03884956 -0.17883904 0.13299045 -0.044477582
0003a0 6f ba 92 bc 74 69 17 3c 4a dc 1e be ea 8c 41 3d
       -0.017911164 0.009241451 -0.15513721 0.047253527
0003b0 77 cc ff 3d 8b e3 dd bd c3 1c c3 3d 92 ac 8f 3d
       0.124901704 -0.10834416 0.0952697 0.07015337
0003c0 6d e3 e7 bd 6b c9 2d 3e 6a 2f 42 bd 63 35 90 bd
       -0.11322675 0.16971366 -0.0474085 -0.07041433
0003d0 7c 6c 53 3e b6 29 b8 3d c7 59 72 3e be 66 cb 3d
       0.20646852 0.08992331 0.2366706 0.09931706
0003e0 ff 86 4e be ba dc 67 be 00 c1 cb bd 9e d3 43 3e
       -0.20168684 -0.22642794 -0.09948921 0.19123694
0003f0 83 06 91 3d b5 a1 d1 bd 7a d7 c6 3d 3e 30 1f 3d
       0.0708132 -0.10235921 0.09709068 0.038864367

last_conv.0.bias f4 [3]
000000 e8 fb 71 bc f7 18 1f bd 19 5c bd bd
       -0.014769532 -0.038842168 -0.09246082

exp_avg f4 [32, 3, 1, 1]
000000 c2 59 8e ba 02 aa b9 39 51 8c 95 3a 3a ac 83 39
       -0.001086049 0.00035412615 0.0011409615 0.00025114586
000010 4c 96 d4 b7 ac b7 b0 b9 b0 4f b2 b8 2f 5d 02 38
       -2.5342357e-05 -0.00033706182 -8.5025444e-05 3.10812e-05
000020 bd c1 e4 38 7f 3e 2d 3b 00 1e 73 b9 4e 6e 19 bb
       0.00010907974 0.0026434956 -0.00023185462 -0.0023411694
000030 78 8f 6a ba f6 fc 36 39 7e 83 3f 3a d1 d0 73 b9
       -0.000894777 0.00017451108 0.00073056656 -0.00023252076
000040 31 4c af 38 f5 a0 66 39 c4 84 c5 3a 77 81 56 b9
       8.358842e-05 0.0002199447 0.0015069474 -0.0002045686
000050 d7 0d ac ba e7 fc 2f 3a 78 23 57 b9 04 5f 50 ba
       -0.0013126683 0.00067134056 -0.00020517211 -0.0007948729
000060 b7 0a cf ba 73 19 ba 39 67 5a ba 3a 6c 2c b0 37
       -0.001579604 0.00035495646 0.0014217616 2.100152e-05
000070 75 77 2b 38 ea 3e 1c b8 8d 8c 83 ba f3 ee e1 39
       4.088083e-05 -3.725189e-05 -0.0010036394 0.00043093375
000080 5a 6b 94 3a 95 e3 f8 3a 6c 90 58 ba 3f 3a 32 bb
       0.0011323497 0.0018988723 -0.00082612666 -0.0027195362
000090 86 3d 15 3a 8a 18 aa b8 d0 c2 17 ba 4a 56 65 3a
       0.00056930666 -8.1108024e-05 -0.0005789222 0.0008748515
0000a0 03 11 84 37 9c ea 36 ba 93 9c be 38 3a 0f 7b b7
       1.5743548e-05 -0.00069777085 9.08907e-05 -1.4964311e-05
0000b0 13 9d f4 b8 40 77 61 ba 7c b7 8c 39 69 40 6b 3a
       -0.00011664084 -0.00086008385 0.00026839587 0.00089741364
0000c0 0b d1 0a 3b f1 1b 80 b9 d4 dc 07 bb 38 b6 3c 3b
       0.0021181728 -0.0002443488 -0.002073099 0.0028795134
0000d0 ed b5 a5 b9 e2 07 31 bb 52 2f 22 3a 7b a9 8d b9
       -0.00031606798 -0.0027012755 0.0006186861 -0.00027019889
0000e0 b5 8d 5c ba a4 24 ee ba 6a 2c 22 3a 62 23 04 3b
       -0.000841345 -0.0018168879 0.0006186428 0.0020162691
0000f0 d9 80 10 3a 23 3f b3 b8 af 8a 0d ba 6a b6 00 3a
       0.0005512364 -8.547145e-05 -0.00053993886 0.00049099943
000100 76 41 4e b9 bc b9 20 ba 81 fe 76 39 8b dd c0 b8
       -0.00019670077 -0.0006131192 0.00023555198 -9.196539e-05
000110 86 2c 89 b9 9d 46 aa ba 1d d7 9f 39 9b b0 9b 3a
       -0.0002616385 -0.0012991015 0.00030487115 0.0011878194
000120 34 0a 0c 3b 4c fd cc b9 a3 65 0d bb 78 be 3d 39
       0.0021368386 -0.00039098633 -0.0021575473 0.000180954
000130 46 18 93 b8 12 35 7e b9 41 4e 7a ba 2d cd 6c 39
       -7.0140275e-05 -0.00024243098 -0.0009548404 0.00022583148
000140 0d af 75 3a 69 31 0a bb 54 91 a9 39 ce 57 e4 3a
       0.0009372093 -0.002108658 0.0003234247 0.0017421187
000150 0c f6 4b ba 43 30 91 39 7f 6a 44 3a a4 e5 1c 3a
       -0.0007780499 0.00027692513 0.0007492676 0.0005985147
000160 c9 d2 ac b7 16 86 09 ba 65 e6 ae b9 c6 be 88 38
       -2.0602152e-05 -0.00052461156 -0.00033359524 6.52052e-05
000170 7e 20 73 39 90 30 b8 ba 5f 90 ad 39 84 88 ad 3a
       0.0002318639 -0.0014052559 0.00033104696 0.0013239537

exp_avg_sq f4 [32, 3, 1, 1]
000000 65 36 3f 36 33 f1 46 36 da 4a 18 36 54 f9 a1 33
       2.849288e-06 2.9644696e-06 2.2693334e-06 7.542499e-08
000010 13 78 98 33 65 b7 6a 33 ed 41 3c 36 79 55 33 36
       7.099893e-08 5.4649167e-08 2.8052557e-06 2.672283e-06
000020 04 2f fb 35 eb 43 9c 37 81 15 8b 37 e8 49 48 37
       1.8714641e-06 1.8628276e-05 1.6580105e-05 1.1938137e-05
000030 af 2e a4 35 44 6c 9a 35 15 88 64 35 0e ae 43 35
       1.2232539e-06 1.1505404e-06 8.5134644e-07 7.2896444e-07
000040 25 2c 3e 35 3b c1 04 35 46 db 9c 36 18 4c 8e 36
       7.0844754e-07 4.945502e-07 4.674689e-06 4.2407883e-06
000050 d3 f2 52 36 27 cf 18 36 13 65 13 36 39 6a d4 35
       3.143378e-06 2.2770344e-06 2.196354e-06 1.5826146e-06
000060 3c 75 05 37 7b bd 07 37 77 18 c7 36 94 5f d1 36
       7.9547135e-06 8.090744e-06 5.9335102e-06 6.239812e-06
000070 9a 5c c8 36 97 7a 8b 36 d1 6d 97 35 f6 d6 9f 35
       5.9712447e-06 4.156794e-06 1.1282337e-06 1.1908985e-06
000080 cb dd 87 35 6d 7d 4f 37 aa b2 40 37 82 dc 0f 37
       1.0122834e-06 1.2367364e-05 1.148569e-05 8.574805e-06
000090 5b 8d b3 36 a5 3f a5 36 4f fc 64 36 0c 3b 57 36
       5.3510716e-06 4.9247924e-06 3.412151e-06 3.2071866e-06
0000a0 63 f5 41 36 fa 2d 08 36 a3 cd 82 35 15 6a 75 35
       2.8902075e-06 2.029234e-06 9.745603e-07 9.142398e-07
0000b0 49 6d 29 35 f3 db c2 35 4a 42 ce 35 59 72 a1 35
       6.3116437e-07 1.451814e-06 1.5367489e-06 1.2028714e-06
0000c0 74 f8 81 37 28 4b 67 37 b6 7e 25 37 c6 48 f9 37
       1.5493693e-05 1.3786172e-05 9.864269e-06 2.9717e-05
0000d0 aa 88 e2 37 73 05 a2 37 7e de 34 35 d1 9e 26 35
       2.7004939e-05 1.9314442e-05 6.7378994e-07 6.207093e-07
0000e0 70 b2 00 35 9e f8 ce 36 3c 69 c9 36 ad fe 9d 36
       4.7943377e-07 6.1682213e-06 6.0025177e-06 4.708613e-06
0000f0 b2 f0 80 35 5b ed 66 35 6a d5 28 35 f1 80 e1 34
       9.606795e-07 8.6027075e-07 6.2895435e-07 4.2003333e-07
000100 80 1a c9 34 58 55 97 34 06 8d 05 35 94 4e 01 35
       3.745845e-07 2.8188038e-07 4.9751577e-07 4.817059e-07
000110 d4 67 b8 34 a1 f2 f7 35 d0 84 f2 35 4f ab bf 35
       3.4348216e-07 1.8473548e-06 1.8069059e-06 1.4280466e-06
000120 4a 48 4a 37 fd 68 38 37 bd 65 07 37 fd 11 cd 35
       1.2056969e-05 1.0991699e-05 8.070315e-06 1.5278926e-06
000130 27 8e c4 35 9f 70 8a 35 8c 54 24 35 7b 9f 17 35
       1.464451e-06 1.0314578e-06 6.121779e-07 5.648396e-07
000140 f5 8d 03 35 07 21 26 37 e8 00 22 37 69 f0 ec 36
       4.900788e-07 9.902061e-06 9.6561635e-06 7.0613355e-06
000150 05 b3 8d 35 d9 a5 97 35 00 84 6b 35 4d d3 9c 36
       1.055742e-06 1.1298645e-06 8.773641e-07 4.673761e-06
000160 8a dc 90 36 75 92 48 36 2a ef 8d 34 5d 13 80 34
       4.3172085e-06 2.9887572e-06 2.643731e-07 2.3855947e-07
000170 d9 24 32 34 24 ed f7 36 3d 53 f1 36 7c 04 af 36
       1.6590947e-07 7.3887804e-06 7.19205e-06 5.2159285e-06

exp_avg f4 [32]
000000 f2 e0 fe 38 7e 75 c1 b8 62 d9 f0 36 be 4e d4 38
       0.00012153563 -9.224842e-05 7.177864e-06 0.000101236146
000010 b7 6f 91 b8 e8 c7 82 37 27 e7 a8 38 2b 73 54 b9
       -6.934947e-05 1.5590296e-05 8.05392e-05 -0.00020260799
000020 87 c0 40 b8 94 1e 04 b8 71 02 33 39 94 7f 7f ba
       -4.5955672e-05 -3.149973e-05 0.0001707168 -0.00097464886
000030 f2 8c c3 b7 c5 9c d9 38 a8 3d 60 b8 05 e7 fb 38
       -2.3311444e-05 0.00010376567 -5.3463184e-05 0.000120116434
000040 f8 b2 57 b8 cf e9 6d 38 22 7d 89 b9 01 6b 9f 39
       -5.1426672e-05 5.6722954e-05 -0.00026223907 0.00030406567
000050 fa fe f8 b7 b7 66 3b b9 50 24 94 b8 93 c0 87 35
       -2.9682637e-05 -0.00017871974 -7.063954e-05 1.011433e-06
000060 28 ad 21 b9 2a 38 50 b8 9e 5b 6f 38 f8 2e 95 b9
       -0.00015418662 -4.964337e-05 5.7067366e-05 -0.0002845449
000070 56 20 a0 37 2d 7c d5 37 03 c7 b1 b8 4a c3 12 36
       1.9088544e-05 2.5449403e-05 -8.4770865e-05 2.1869369e-06

exp_avg_sq f4 [32]
000000 89 8d 96 35 56 61 24 33 26 43 11 33 06 c9 18 36
       1.1217063e-06 3.8272752e-08 3.3821514e-08 2.2766776e-06
000010 e6 6f 49 34 e2 44 76 33 47 53 c1 34 a7 4a b1 33
       1.8760292e-07 5.7338987e-08 3.6009644e-07 8.255784e-08
000020 57 31 fa 35 10 7b 93 33 44 77 44 35 2d 7f 86 35
       1.8640811e-06 6.867606e-08 7.3189244e-07 1.0020791e-06
000030 ec 9c 9c 34 99 04 9d 34 b1 48 fe 31 40 24 6d 35
       2.917144e-07 2.9246874e-07 7.400637e-09 8.834213e-07
000040 52 f8 0c 36 64 6c 1f 36 2c 0f 91 33 52 bd 2d 35
       2.1006167e-06 2.3755938e-06 6.7548484e-08 6.472302e-07
000050 47 06 f4 33 5c 08 b3 33 7e ad 44 32 1e 22 02 35
       1.1363277e-07 8.3368576e-08 1.1448149e-08 4.847842e-07
000060 84 d6 8d 35 71 2f b6 32 cc 47 2c 34 2e e5 9f 35
       1.0567751e-06 2.1209162e-08 1.6044868e-07 1.1913123e-06
000070 7c d2 4b 35 18 f5 3e 34 f7 44 23 33 92 cd f0 34
       7.592969e-07 1.7784294e-07 3.8014118e-08 4.4853056e-07
