IID/reflectance_filtering/checkpoint/Direct_Reflectance_Prediction_Net.pth (torch_old, 59846 bytes, 33 tensors)

layer1.0.weight f4 [32, 3, 1, 1]
0	0xbe1b9a37	-0.15195547
1	0xbf0faa6f	-0.56119436
2	0xbeaddd4f	-0.33957908
3	0x3eb6ce1d	0.35704127
4	0xbd9b17c7	-0.075728945
5	0x3eb86119	0.3601158
6	0x3ea978ca	0.33099967
7	0x3e8f5d8f	0.28001067
8	0x3e04a2f4	0.12952787
9	0x3ebdeb58	0.37093616
10	0x3c014a04	0.007891182
11	0x3cedd354	0.029031433
12	0xbed40cf0	-0.4141612
13	0xbe7391e1	-0.23786117
14	0xbecd58a3	-0.40106687
15	0x3dad292e	0.0845512
16	0x3eeda33a	0.46413594
17	0x3de2613b	0.110537015
18	0xbed7df25	-0.42162433
19	0xbe0af74b	-0.13570897
20	0xbd998f22	-0.074980035
21	0xbeb49a65	-0.35274044
22	0xbf1aa7c1	-0.6041222
23	0xbf06546d	-0.52472574
24	0x3db524d7	0.08844917
25	0xbe735117	-0.23761402
26	0xbd9dc4d8	-0.077035606
27	0x3eb9f9ac	0.36323297
28	0xbd3a5114	-0.04548748
29	0x3da9818e	0.08276664
30	0xbe1c92f8	-0.15290439
31	0x3e895cac	0.26828516
32	0x3e41b0b6	0.18915066
33	0xbed151aa	-0.40882617
34	0x3e89aa0e	0.26887554
35	0xbf0aacf6	-0.5417017
36	0x3e6d712a	0.231877
37	0xbeafd9b4	-0.34345782
38	0xbf05d3fc	-0.5227659
39	0x3ed53d14	0.4164816
40	0x3ea8fb5f	0.3300428
41	0x3dc19d5a	0.094538406
42	0x3b9d81c8	0.004806731
43	0xbecabbd4	-0.39596426
44	0x3e77c9e1	0.24198104
45	0xbe911d50	-0.28342676
46	0xbe6ece2c	-0.23320836
47	0x3e3171eb	0.17328613
48	0xbecb6a24	-0.39729416
49	0x3d6764c5	0.056492586
50	0xbdea8356	-0.114508316
51	0xbe479880	-0.19491768
52	0xbe9dc3cc	-0.30813444
53	0xbf0732db	-0.52811974
54	0x3e3b5141	0.18292715
55	0xbe7cdf56	-0.24694571
56	0xbe0adaff	-0.13560103
57	0xbe60edec	-0.2196576
58	0xbe8d0b03	-0.27547464
59	0xbe850dff	-0.2598724
60	0xbd0b644d	-0.0340312
61	0xbe68ae71	-0.22722794
62	0x3ea74ebe	0.32677263
63	0x3e2cd1aa	0.16876855
64	0x3e2f4755	0.17117055
65	0xbd7f264e	-0.06229239
66	0xbd9242ff	-0.07141685
67	0x3ea559d1	0.32295087
68	0x3eae0d0d	0.33994332
69	0xbebdcd60	-0.3707075
70	0xbed17f7c	-0.40917575
71	0xbf081bc0	-0.53167343
72	0x3ecc6dc4	0.39927495
73	0xbea291b4	-0.31751788
74	0x3d403c00	0.04693222
75	0x3e3e8a31	0.18607403
76	0xbdb64b06	-0.08901028
77	0x3e813589	0.25236157
78	0xbe0af96c	-0.1357171
79	0x3e0454f9	0.1292304
80	0x3e953755	0.29143777
81	0xbe46ee29	-0.19426788
82	0xbe303390	-0.1720717
83	0x3d20084f	0.039070424
84	0x3d961f00	0.073301315
85	0x3e9545b4	0.29154742
86	0xbe8f6ab4	-0.28011096
87	0x3ea87aa7	0.32906076
88	0xbeb735de	-0.35783285
89	0xbdf7d9a8	-0.121020615
90	0xbe073269	-0.13202824
91	0xbe18cdb8	-0.14922225
92	0xbe901006	-0.28137225
93	0xbd8b48d7	-0.068010025
94	0xbeb75d7a	-0.35813504
95	0xbe11a927	-0.14224683

layer1.0.bias f4 [32]
0	0x3e2ee68a	0.17080131
1	0xbd9d1a27	-0.07671004
2	0x3e9393d1	0.28823712
3	0xbdca892e	-0.09889446
4	0xbebda557	-0.37040207
5	0xbde019f6	-0.10942452
6	0xbdec9016	-0.1155092
7	0xbec7e5cd	-0.39042512
8	0x3da90db2	0.08254565
9	0xbed6fe4a	-0.41990882
10	0x3ecde889	0.40216473
11	0x3f18996e	0.59609115
12	0x3c2b0f65	0.010440682
13	0x3f28b51b	0.65901345
14	0xbde6020c	-0.11230859
15	0x3d815070	0.0631417
16	0x3dfafb88	0.12255007
17	0xbe569ae0	-0.20957518
18	0xbec34789	-0.38140514
19	0x3ee30ddf	0.4434652
20	0x3e02e12b	0.12781207
21	0xbe4b9623	-0.19881491
22	0xbe3742a4	-0.17896515
23	0x3ea98a4c	0.33113325
24	0xbee3babd	-0.44478408
25	0xbe034c8e	-0.12822172
26	0x3f0f1908	0.5589757
27	0x3f0baaa9	0.5455728
28	0x3e22820a	0.15869918
29	0xbe80cd1d	-0.2515649
30	0xbe2a5516	-0.1663402
31	0x3ed99b06	0.42501086

layer2.0.weight f4 [32, 32, 1, 1]
0	0x3e2cee18	0.168877
1	0x3d9a8a5b	0.075459205
2	0x3ea807b7	0.32818386
3	0xbc99961c	-0.018748336
4	0x3c9c62f9	0.019090163
5	0xbcf99819	-0.030468034
6	0x3dad15a9	0.08451397
7	0x3e08b99b	0.13352053
8	0x3e5c5d95	0.21520074
9	0xbe3cdea2	-0.18444303
10	0x3da74900	0.081682205
11	0x3e656bdb	0.22404425
12	0xbd302448	-0.04300335
13	0xbdd61de5	-0.10454921
14	0xbe21707d	-0.15765567
15	0xbe2fc3db	-0.17164557
16	0x3e85de2b	0.26146063
17	0xbe3afdcf	-0.18260883
18	0xbdaebfbd	-0.08532665
19	0x3cfb5259	0.030678915
20	0xbe902e77	-0.2816045
21	0x3e8578e1	0.26068786
22	0xbd1f95d3	-0.038961243
23	0x3d8d58e3	0.069017194
24	0x3da41ac7	0.0801292
25	0xbe8d3468	-0.27579045
26	0xbe2a0b77	-0.16605936
27	0x3da33257	0.07968586
28	0x3ea592fd	0.32338706
29	0xbd30f37a	-0.043200947
30	0x3bd950c2	0.0066319415
31	0x3e8d1d25	0.27561298
32	0xbc136219	-0.008995556
33	0x3e8bb7fa	0.272888
34	0xbe3c33bb	-0.18379109
35	0xbe9f6c89	-0.31137493
36	0xbe1c1544	-0.15242487
37	0xbdfcc718	-0.123426616
38	0xbb3f16ee	-0.0029157954
39	0x3e4639bf	0.19357966
40	0xbd220b18	-0.03956136
41	0xbd9aec1f	-0.07564568
42	0x3e3dcaf8	0.18534458
43	0x3d342deb	0.043989103
44	0x3dfffba5	0.12499169
45	0xbd091172	-0.033463903
46	0xbd978953	-0.073992394
47	0xbdde44f2	-0.10852994
48	0xbe7080c9	-0.23486628
49	0x3e9b6c4b	0.30356058
50	0x3da252dd	0.07925961
51	0xbe3e5a55	-0.18589146
52	0x3e49c417	0.19703709
53	0x3d06be18	0.03289613
54	0xbe923b2e	-0.28560776
55	0x3e223a7b	0.15842621
56	0xbe111d32	-0.14171293
57	0x3da8753c	0.08225486
58	0xbea0b9e2	-0.31391817
59	0x3e41be38	0.18920219
60	0xbd724249	-0.059145246
61	0x3e8a0cf4	0.26963007
62	0x3e0f53f7	0.13996874
63	0x3c178c57	0.009249768
64	0xbda0f2c1	-0.07858802
65	0x3e0b1ebb	0.13585941
66	0x3cba9f5c	0.022781067
67	0x3dcca933	0.0999321
68	0x3db6fde3	0.08935144
69	0xbe86b9e1	-0.2631369
70	0x3e66b561	0.22530128
71	0xbe35086e	-0.17678997
72	0x3e8fdc2c	0.28097665
73	0x3da15aa0	0.078786135
74	0xbe6145c7	-0.21999274
75	0x3e079393	0.13239889
76	0x3e56e41d	0.20985456
77	0x3d944b07	0.07240873
78	0xbe8b1b84	-0.2716943
79	0x3e8728bd	0.26398268
80	0x3db35060	0.08755565
81	0x3d6e7785	0.05821945
82	0xbe3a17b2	-0.18173102
83	0xbe545e7d	-0.2073917
84	0xbe03a2f9	-0.12855138
85	0xbea58cad	-0.3233389
86	0xbe2513fe	-0.16120908
87	0x3e70a05e	0.23498675
88	0xbe077f7e	-0.13232228
89	0x3dad967d	0.08475969
90	0xbe8359e6	-0.25654525
91	0x3e9fbfd1	0.31201032
92	0x3d89094c	0.06691226
93	0xbe651334	-0.22370607
94	0x3da53352	0.08066429
95	0x3e0574c6	0.13032827
96	0xbdde515b	-0.10855361
97	0xbe1d2195	-0.15344842
98	0xbea0706b	-0.31335768
99	0xbd589c17	-0.052883234
100	0xbe22b444	-0.15889078
101	0x3e3963b4	0.1810444
102	0xbe7e508c	-0.24835414
103	0x3e4b2dea	0.19841734
104	0x3dc7e125	0.0975974
105	0xbe42684e	-0.18985102
106	0xbbcd5e57	-0.0062673497
107	0xbe208dc3	-0.15679078
108	0xbe337118	-0.1752361
109	0xbd46575a	-0.04842315
110	0x3d4b7795	0.04967459
111	0x3e9e3faf	0.30907962
112	0x3e85b294	0.26112807
113	0x3df24174	0.118288904
114	0xbd1b4bbc	-0.037914023
115	0x3c9de2a6	0.019273113
116	0x3de5a977	0.112139635
117	0xbe4ed13a	-0.20197001
118	0x3dc4a3f1	0.09601582
119	0x3e9a9d34	0.3019806
120	0xbde8d102	-0.1136799
121	0xbe1e038c	-0.1543104
122	0xbeaa7202	-0.33290106
123	0xbe12c7b1	-0.14333989
124	0x3dfaac58	0.12239903
125	0x3e5863e1	0.21131851
126	0xbcb2cca2	-0.021826092
127	0xbde4cd4e	-0.11171971
128	0x3e879eb8	0.2648828
129	0xbd831ac7	-0.06401592
130	0xbe82552d	-0.2545561
131	0xbe5ab6ba	-0.21358767
132	0x3d9e427c	0.07727525
133	0x3e418455	0.18898137
134	0x3e6bd4b8	0.23030365
135	0x3cf0388f	0.029323844
136	0xbe5ce012	-0.21569851
137	0x3e816426	0.2527172
138	0xbe349b2b	-0.17637317
139	0xbe01020d	-0.12598439
140	0x3e5cbf60	0.21557379
141	0xbc86ea56	-0.016469162
142	0x3e6fedbb	0.2343053
143	0xbe6a18e8	-0.22861063
144	0xbe6969cf	-0.22794269
145	0x3ca171a5	0.01970751
146	0x3e218615	0.15773804
147	0xbe86d4c2	-0.26334196
148	0x3e91f450	0.28506708
149	0xbdde0d95	-0.10842434
150	0x3cb4cc5b	0.0220701
151	0xbe9650c5	-0.29358497
152	0x3e02a8a6	0.12759647
153	0xbd78c98d	-0.06073909
154	0x3e40f5be	0.18843743
155	0xbd9689c5	-0.07350496
156	0xbe944080	-0.2895546
157	0xbe824a4f	-0.25447318
158	0x3d999d7f	0.07500743
159	0xbdd55dbf	-0.10418271
160	0xbe0b57e7	-0.13607751
161	0xbe2b92ff	-0.16755293
162	0x3e5ea7c4	0.21743685
163	0xbdf8c992	-0.121478215
164	0xbe89426a	-0.26808482
165	0xbdd26ae9	-0.10274298
166	0xbe018394	-0.1264785
167	0xbd9b1c8c	-0.07573804
168	0xbdbbc7de	-0.09168981
169	0x3e0b87c8	0.13626015
170	0x3ea0577d	0.31316748
171	0x3d3c062b	0.04590432
172	0xbe36bcc8	-0.17845452
173	0xbe02b70a	-0.12765136
174	0x3e670528	0.2256056
175	0x3ea04c67	0.3130829
176	0x3e001592	0.12508228
177	0x3e283c13	0.16429166
178	0x3d35bca7	0.044369366
179	0x3e9ff25e	0.312396
180	0xbd714cad	-0.058911014
181	0xbe97dc95	-0.29660478
182	0x3e8fe4f0	0.28104353
183	0xbe84728d	-0.25868645
184	0x3e116430	0.14198375
185	0x3da76078	0.08172697
186	0xba1a684c	-0.0005890175
187	0xbdfd94a8	-0.123818696
188	0x3e6e3d8e	0.23265669
189	0xbdfd8a64	-0.123799115
190	0x3eaa86c2	0.33305937
191	0xbdbf9279	-0.09354109
192	0x3e63e944	0.22256953
193	0xbc37110e	-0.0111735
194	0x3df0011b	0.11718961
195	0xbe319e9e	-0.17345664
196	0x3e8e903c	0.27844417
197	0x3ca80833	0.020511722
198	0x3e3d23c9	0.18470682
199	0x3e281904	0.16415793
200	0x3e887dda	0.26658517
201	0xbd8f2441	-0.06989337
202	0xbdfb6358	-0.12274808
203	0x3e551d50	0.20811963
204	0xbb43cb37	-0.0029875764
205	0xbdb57085	-0.08859352
206	0x3e3e9ead	0.18615218
207	0x3e94323c	0.28944576
208	0xbd4a2a03	-0.04935647
209	0x3e98b27c	0.29823673
210	0xbdf8a536	-0.121408865
211	0xbe8750fd	-0.26428977
212	0xbe0c633b	-0.13709728
213	0x3db2c884	0.087296516
214	0xbe3bdf63	-0.18346934
215	0xbda3ec18	-0.08004016
216	0x3d6e025f	0.05810773
217	0xbddfdee0	-0.10931182
218	0x3d936466	0.07196884
219	0x3e1ef57c	0.15523332
220	0x3e5c7617	0.21529423
221	0x3d7bc6ad	0.06146877
222	0x3db8cb86	0.09023194
223	0x3e18df21	0.14928867
224	0x3cc02297	0.023453994
225	0xbe6dc924	-0.2322126
226	0xbe62bcc4	-0.22142321
227	0xbe4e059d	-0.20119329
228	0x3ebef148	0.37293458
229	0x3d112113	0.035431933
230	0x3e680eac	0.22661847
231	0x3ed3389f	0.41254136
232	0xbe2f29fa	-0.17105857
233	0x3e6e8d12	0.23296002
234	0x3d6c96e3	0.057761084
235	0xbe7b517a	-0.245428
236	0x3eb67e9f	0.3564348
237	0x3d97f580	0.07419872
238	0x3ca9fd64	0.020750709
239	0xbdaaca33	-0.08339348
240	0x3e6ae322	0.22938207
241	0x3e9cc297	0.3061721
242	0x3eae605f	0.340579
243	0x3e0dfd99	0.13866271
244	0x3a5c9e89	0.00084159576
245	0xbe73f142	-0.23822501
246	0xbe9f6c4e	-0.31137317
247	0xbd017c94	-0.031612948
248	0xbd2c6f9c	-0.042098626
249	0xbd2e022f	-0.04248255
250	0xbe5c4237	-0.21509634
251	0xbda1cf99	-0.07900924
252	0x3e9062d0	0.28200388
253	0x3daed6b6	0.085370466
254	0xbd698d64	-0.057019606
255	0x3ea9afaa	0.33141834

layer2.0.bias f4 [32]
0	0xbdd4c81c	-0.1038973
1	0xbd1a0302	-0.037600525
2	0x3ddecebe	0.10879277
3	0xbdffd05a	-0.12490912
4	0x3dc7f108	0.0976277
5	0x3e0c9c21	0.13731433
6	0x3e128b8e	0.14311048
7	0x3e03a7e1	0.1285701
8	0x3d8e9677	0.06962293
9	0xbcadad64	-0.021200843
10	0xbe1237b0	-0.14279056
11	0x3e61829a	0.22022477
12	0xbca2a26b	-0.019852838
13	0x3c1e53f4	0.009663571
14	0x3de58fc5	0.112090625
15	0x3c6cde7e	0.014457343
16	0x3de8545e	0.11344217
17	0x3b939968	0.0045043714
18	0xbda2a307	-0.07941251
19	0x3dc04635	0.09388391
20	0x3d8bb390	0.06821358
21	0x3dba8fe5	0.09109477
22	0x3cfc37d7	0.030788345
23	0x3e446967	0.19180833
24	0x3e2de5be	0.16982171
25	0x3de14831	0.110000975
26	0x3dae0bb8	0.08498329
27	0x3b58c09f	0.0033073795
28	0x3dcabaac	0.09898886
29	0x3d1e77a5	0.03868832
30	0xbdaf6b67	-0.08565407
31	0xbc3984e0	-0.011323184

layer3.0.weight f4 [32, 32, 1, 1]
0	0xbe957589	-0.29191235
1	0x3e5f0806	0.21780404
2	0x3e13e156	0.14441428
3	0xbe8f7a2f	-0.28022906
4	0x3e2c5562	0.16829446
5	0xbec719a8	-0.38886762
6	0x3d4a1b8e	0.049342684
7	0xbe0068b0	-0.12539935
8	0x3c383f5c	0.011245575
9	0x3e01fb86	0.12693605
10	0x3df2de2e	0.11858784
11	0x3d90042a	0.07032044
12	0x3e920fc5	0.28527656
13	0xb9cc2c14	-0.00038942753
14	0x3e57ea85	0.21085556
15	0x3d93a2cb	0.07208785
16	0xbd8e813b	-0.069582425
17	0xbd480f9c	-0.04884301
18	0x3dd8fb54	0.10594812
19	0xbed1c69e	-0.40971845
20	0x3e10e069	0.14148106
21	0x3d590dc2	0.052991636
22	0xbe12d120	-0.14337587
23	0xbe528b4a	-0.20560947
24	0xbe0a0750	-0.13479352
25	0xbe9a462a	-0.30131656
26	0xbe39a702	-0.18130115
27	0xbe4ff586	-0.20308504
28	0x3e2fdc92	0.17173985
29	0x3da1d90d	0.07902727
30	0x3da466ec	0.08027443
31	0xbebe8bc8	-0.3721602
32	0x3c2af628	0.010434665
33	0xbeab69b3	-0.3347908
34	0xbe8005e4	-0.25004494
35	0x3ddf5da7	0.10906535
36	0x3c103180	0.008800864
37	0x3d9dd650	0.077068925
38	0xbe4d3dcc	-0.20043105
39	0x3d64e088	0.055878192
40	0x3e53d810	0.2068789
41	0x3e64695d	0.22305818
42	0x3dbcceab	0.09219106
43	0xbcb94cb2	-0.022619579
44	0xbe240710	-0.16018319
45	0x3e0aa508	0.13539517
46	0xbde1b64d	-0.11021099
47	0x3e4346c4	0.19069964
48	0x3d7c8c5e	0.061657302
49	0x3d2bbf60	0.041930556
50	0xbe2a901e	-0.16656539
51	0x3c4e8222	0.012604268
52	0x3da0197e	0.07817362
53	0xbe93b62b	-0.2884992
54	0x3e482521	0.19545414
55	0xbde5f8e0	-0.1122911
56	0x3cc8764b	0.024470469
57	0xbe9715f8	-0.29508948
58	0xbe847e40	-0.2587757
59	0xbe1d258f	-0.15346359
60	0xbb844e56	-0.0040376587
61	0x3d8e70e4	0.06955126
62	0x3e698f67	0.2280861
63	0xbe4bba84	-0.19895369
64	0xbe6af485	-0.2294484
65	0x3c443773	0.011976111
66	0xbdf4136a	-0.119177654
67	0xbe09156d	-0.1338708
68	0xbdac02bf	-0.08398961
69	0x3e48c4d6	0.19606337
70	0xbdbaa009	-0.091125555
71	0x3dc76140	0.09735346
72	0x3dccded8	0.100034416
73	0xbe5d97c1	-0.21639921
74	0xbc411301	-0.011784316
75	0x3eb5e96a	0.35529643
76	0x3e42bfaf	0.19018434
77	0x3d4aac46	0.0494807
78	0xbd916adf	-0.07100462
79	0xbe992275	-0.299091
80	0x3e5dbf31	0.21654965
81	0x3e8b718f	0.27235076
82	0xbda73016	-0.081634685
83	0xbe5115b3	-0.20418434
84	0x3d29f30a	0.041491546
85	0xbd9693b5	-0.07352392
86	0xbe09e23b	-0.13465206
87	0xbe426dab	-0.18987148
88	0x3c2f8547	0.010712928
89	0xbe598bf0	-0.21244788
90	0x3e91596f	0.28388545
91	0x3c8f0f6a	0.017463405
92	0x3d83ec0e	0.06441508
93	0x3e80d1f8	0.25160193
94	0x3e8725c9	0.26396015
95	0x3e8c9399	0.27456358
96	0x3daca41d	0.084297396
97	0x3e1baee9	0.15203442
98	0x3ea12539	0.3147371
99	0xbd813e79	-0.06310744
100	0xbe79d16f	-0.24396299
101	0x3d2ffad8	0.042963833
102	0x3e8ecd13	0.27890834
103	0x3e91f765	0.2850906
104	0xbd2ff787	-0.04296067
105	0x3e7fde4f	0.24987148
106	0xbda1642a	-0.07880433
107	0xbdacc7b5	-0.084365286
108	0xbdf044a9	-0.11731846
109	0xbd891fb9	-0.06695504
110	0xbd92d28c	-0.07169065
111	0x3e6d9692	0.2320197
112	0xbea6e4d5	-0.3259646
113	0xbdd98ea8	-0.10622913
114	0xbeba4167	-0.36378023
115	0xbe019bac	-0.1265704
116	0x3b133ef8	0.0022467952
117	0x3e065698	0.1311897
118	0x3e22f388	0.15913212
119	0xbe202fb3	-0.15643196
120	0xbe8b25bd	-0.2717723
121	0xbe46fbd7	-0.19432007
122	0xbe401697	-0.18758617
123	0x3dd0e0cb	0.10199126
124	0xbd0ecce7	-0.03486338
125	0xbeb4ef68	-0.35338902
126	0xbe49e903	-0.19717793
127	0x3e892cd8	0.26792026
128	0xbe20060b	-0.15627305
129	0xbe51f652	-0.2050412
130	0xbe2e801a	-0.17041054
131	0xbdb88b2b	-0.09010919
132	0xbde4c75f	-0.111708395
133	0x3ecb0004	0.3964845
134	0x3eab8a9d	0.3350419
135	0x3e148e09	0.14507307
136	0xbaecaafb	-0.0018056327
137	0x3e79ec29	0.24406494
138	0xbd80e8df	-0.06294417
139	0x3e8c0243	0.27345476
140	0xbdc9e470	-0.09858024
141	0x3e9ad49d	0.30240336
142	0xba1e5dbc	-0.0006041189
143	0x3e650dcf	0.22368549
144	0x3b83c4e0	0.004021272
145	0x3d99a599	0.07502288
146	0xbdab5277	-0.08365338
147	0xbda43a5e	-0.08018945
148	0xbd00ae48	-0.031416208
149	0xbc386925	-0.011255537
150	0x3e6482dd	0.22315545
151	0x3c3af291	0.011410371
152	0x3d3695da	0.044576503
153	0x3e84bc37	0.25924847
154	0xbdfd7251	-0.1237532
155	0x3d88e9af	0.066851966
156	0xbe4f629c	-0.2025246
157	0xbe8b914f	-0.272593
158	0xbd81e073	-0.063416384
159	0x3e30f9fc	0.17282861
160	0x3eaad5ea	0.33366328
161	0x3eaa98ca	0.33319694
162	0x3d527f6e	0.051391058
163	0xbd884638	-0.06654018
164	0xbe3487e5	-0.17629965
165	0xbc9d9d0f	-0.01923993
166	0xbe23c707	-0.15993892
167	0x3ea006d2	0.31255203
168	0xbc234fd4	-0.009967763
169	0x3e8181e8	0.25294423
170	0xbe25c253	-0.1618741
171	0x3e8a4546	0.27005976
172	0x3dec86c6	0.115491435
173	0xbbd76f31	-0.0065745343
174	0x3e8bf59f	0.27335832
175	0x3e887175	0.2664906
176	0xbe9455d7	-0.2897174
177	0xbe907606	-0.28215045
178	0xbea762e4	-0.32692635
179	0xbe66fd5e	-0.2255759
180	0xbd9abcd9	-0.07555551
181	0x3e1c50a9	0.15265144
182	0x3cc7025c	0.024293117
183	0x3e57977b	0.21053879
184	0x3e82f529	0.25577667
185	0xbda34d1d	-0.079736926
186	0x3e85f38b	0.2616237
187	0xbe19df12	-0.15026501
188	0xbcd2c292	-0.025727544
189	0xbcdb7ea7	-0.026793791
190	0xbdc54b45	-0.09633497
191	0x3e031bbd	0.1280355
192	0x3e5fcf68	0.21856463
193	0xbe915eb1	-0.28392556
194	0xbe76c01d	-0.24096723
195	0xbe778c92	-0.24174717
196	0x3e054c1c	0.13017315
197	0x3e3a697e	0.18204305
198	0xbda70dbd	-0.08156917
199	0x3ca4c6fa	0.02011441
200	0xbe98d982	-0.29853445
201	0xbc122efa	-0.008922333
202	0x3ea32fcd	0.31872407
203	0xbd0dd95f	-0.03463113
204	0xbe18ce3b	-0.1492242
205	0x3dae2df8	0.085048616
206	0xbd717c32	-0.058956333
207	0xbe2ad7bd	-0.1668386
208	0xbe98098d	-0.29694787
209	0x3dd09405	0.101844825
210	0xbdcd1eea	-0.10015662
211	0x3e5dbae8	0.2165333
212	0x3c99cd93	0.018774783
213	0x3dfb561f	0.12272286
214	0xbd6fc8d4	-0.058541134
215	0x3e3d847a	0.18507567
216	0xbd980294	-0.07422367
217	0x3e820a11	0.25398305
218	0xbd881417	-0.06644457
219	0x3c5e7a01	0.013578893
220	0xbda94115	-0.082643665
221	0xbe4483a3	-0.1919084
222	0xbe4754bf	-0.19465922
223	0x3e711811	0.23544337
224	0x3cba4dd1	0.022742184
225	0x3da57131	0.0807823
226	0xbe29170c	-0.16512698
227	0xbdd8f381	-0.1059332
228	0xbe3ee7cd	-0.18643112
229	0x3d0a6ef7	0.03379723
230	0xbe6cb888	-0.23117268
231	0x3db3bc31	0.08776129
232	0xbe843cf1	-0.25827745
233	0x3e9312e8	0.28725362
234	0xbe1da02f	-0.15393136
235	0xbe9c8b74	-0.30575144
236	0xbde270e3	-0.11056688
237	0xbe72adae	-0.23699066
238	0xbe6444bf	-0.2229185
239	0x3d53765b	0.051626544
240	0x3e94aa66	0.29036254
241	0x3da628bc	0.08113238
242	0xbd9b8527	-0.07593756
243	0x3e108f98	0.14117277
244	0x3db97302	0.09055139
245	0x3d6f6e13	0.058454584
246	0x3daf3fc7	0.085570864
247	0xbe764d4b	-0.24052922
248	0xbe49c7e4	-0.19705158
249	0x3c7a6589	0.015282997
250	0x3e6cdfd8	0.23132265
251	0x3dd41833	0.10356178
252	0x3e8209e7	0.2539818
253	0x3e5dc4ac	0.21657056
254	0x3e1e9334	0.15485841
255	0xbdff4896	-0.124650165

layer3.0.bias f4 [32]
0	0x3d6eea85	0.058329124
1	0xbd98a0d5	-0.07452551
2	0xbd0c2fcd	-0.034225274
3	0xbe022dee	-0.12712833
4	0xbda4e201	-0.08050919
5	0x3d2d7f04	0.04235746
6	0xbab880e5	-0.00140765
7	0x3dc66db9	0.09688897
8	0xbe031b53	-0.12803392
9	0xbdabd78d	-0.083907224
10	0x3d3fcc35	0.046825606
11	0x3d9c25f0	0.076244235
12	0xbdbb9a4e	-0.09160291
13	0xbde2a44b	-0.11066493
14	0x3d8e7794	0.069564015
15	0x3d2ece87	0.04267743
16	0xbe4dc879	-0.20096005
17	0x3d5e8fed	0.054336477
18	0xbdba7cd1	-0.09105838
19	0xbe081534	-0.13289338
20	0xbda33ebf	-0.07970952
21	0xbddc8c5c	-0.10768959
22	0x3e0176b0	0.12642932
23	0x3d411c8f	0.047146376
24	0x3d940b2e	0.07228695
25	0x3cd6201e	0.026138362
26	0xbd82b833	-0.063827895
27	0xbd9d7f13	-0.07690253
28	0x3c98c889	0.01865031
29	0xbdb1b23f	-0.08676576
30	0x3e062cf1	0.13103081
31	0x3cc4487a	0.02396034

layer4.0.weight f4 [32, 32, 1, 1]
0	0x3cd22b5c	0.025655441
1	0xbe383a3e	-0.17990968
2	0x3de32222	0.11090495
3	0xbe9712e1	-0.2950659
4	0xbe0971ad	-0.1342227
5	0x3e9e4de6	0.30918807
6	0x3eb689d5	0.35652032
7	0x3e128618	0.14308965
8	0x3d9421e4	0.072330266
9	0x3e05c27e	0.13062474
10	0x3eb84edc	0.35997665
11	0xbe122b64	-0.14274365
12	0x3de53328	0.11191398
13	0x3d3c1bbc	0.045924887
14	0x3e373384	0.17890745
15	0x3e8c4f4b	0.27404246
16	0xbe2f1051	-0.17096068
17	0x3d930748	0.07179123
18	0xbcded155	-0.027199427
19	0xbdb3dc11	-0.08782209
20	0xbdf3ac84	-0.11898139
21	0xbe36eac3	-0.17862992
22	0x3d2b5c58	0.041836113
23	0xbe3a79fd	-0.18210597
24	0x3e756b65	0.23966749
25	0x3d44ba8a	0.04802946
26	0x3db509c1	0.08839751
27	0xbddb51d6	-0.10708968
28	0xbe56a3fd	-0.20960994
29	0x3ea57cd4	0.323218
30	0x3ddb52a5	0.107091226
31	0xbddf171d	-0.108930804
32	0xbe100d26	-0.14067516
33	0x3dc568d5	0.09639136
34	0x3e3c39c9	0.18381418
35	0x3e8991ec	0.26869142
36	0xbe6709e3	-0.22562365
37	0x3e368deb	0.17827575
38	0xbe2edb17	-0.17075764
39	0xbe45d290	-0.19318604
40	0x3d3f5349	0.046710286
41	0xbe16529c	-0.1467995
42	0xbe49f8e6	-0.19723853
43	0x3e325295	0.17414315
44	0xbe896c61	-0.268405
45	0x3bf54070	0.007484488
46	0x3d635f2a	0.055510677
47	0xbd38047a	-0.044926144
48	0x3e40ff2f	0.18847345
49	0x3e384337	0.1799439
50	0xbe83ea62	-0.25764757
51	0xbd6d7238	-0.057970256
52	0xbe569178	-0.2095393
53	0xbe26d931	-0.1629379
54	0x3e2ef0e5	0.17084081
55	0x3e0e7715	0.13912614
56	0x3e743570	0.2384851
57	0x3d068c18	0.032848448
58	0x3e47712e	0.19476768
59	0xbea904fd	-0.33011618
60	0x3daf8027	0.08569365
61	0xbd2a073c	-0.041510805
62	0x3e20b077	0.15692316
63	0xbddf1ec1	-0.10894538
64	0x3e5211a5	0.20514543
65	0xbe7af23f	-0.24506472
66	0x3dc84aa2	0.0977986
67	0xbe02386b	-0.12716834
68	0xbddd8711	-0.108167775
69	0xbdc6718b	-0.09689625
70	0xbe006f12	-0.1254237
71	0xbdfcfcd0	-0.12352908
72	0xbdffcd16	-0.12490289
73	0x3da4456a	0.08021052
74	0x3eaaba84	0.33345425
75	0x3ea31b3f	0.31856725
76	0x3b6e95f5	0.00364053
77	0xbe814fd5	-0.2525622
78	0xbe95e4ef	-0.29276225
79	0xbe63b782	-0.22237971
80	0xbd3b4e70	-0.0457291
81	0xbdec8802	-0.11549379
82	0xbe06cf76	-0.13165078
83	0xbe20565b	-0.15657942
84	0x3d55750d	0.05211358
85	0x3e6c025b	0.23047774
86	0x3ec7974b	0.38982615
87	0x3e915ded	0.28391972
88	0x3e9fd9a9	0.3122075
89	0xbd1ea31a	-0.038729765
90	0xbe2726c0	-0.16323376
91	0x3e507c88	0.20360005
92	0x3bd94506	0.0066305427
93	0xbe804f08	-0.25060296
94	0xbe35de56	-0.17760596
95	0x3e8cee2b	0.27525458
96	0x3e64e71c	0.22353786
97	0x3dea4e7f	0.11440753
98	0x3dd54dc8	0.10415226
99	0xbc35371c	-0.011060502
100	0xbe8d40c2	-0.2758847
101	0x3e071dd7	0.13194977
102	0xbdda3b80	-0.1065588
103	0xbe07a6e8	-0.13247263
104	0x3e4bfa98	0.19919813
105	0xbdf937bc	-0.121688336
106	0x3e98b2f2	0.29824024
107	0x3dd7d2c5	0.10538248
108	0xbe7980d6	-0.24365553
109	0x3daa7556	0.08323161
110	0x3e96aa2b	0.29426703
111	0xbe7ae47e	-0.24501225
112	0xbdaecd39	-0.08535237
113	0x3e08df37	0.133664
114	0xbd953205	-0.07284931
115	0xbe58c9df	-0.21170758
116	0xbcc63b52	-0.024198208
117	0xbe88f88b	-0.26752123
118	0x3ec97e60	0.3935423
119	0xbe35beda	-0.17748585
120	0x3da1514b	0.078768335
121	0xbe1ef24e	-0.1552212
122	0x3d85af26	0.065275475
123	0x3d645314	0.055743292
124	0xbe583aa2	-0.21116117
125	0x3e101caf	0.14073442
126	0xbe68c5a6	-0.22731647
127	0xbe4babb3	-0.19889717
128	0x3e614953	0.22000627
129	0x3c5721bd	0.013130602
130	0x3e9ae081	0.30249408
131	0xbc943a31	-0.018094154
132	0xbe55931d	-0.208569
133	0x3dd64475	0.10462276
134	0xbe131c87	-0.14366351
135	0x3e19ac0e	0.1500704
136	0x3dd7ecf6	0.105432436
137	0x3e65bd9a	0.22435609
138	0x3e27b549	0.16377749
139	0xbe09581e	-0.1341252
140	0xbe40fb55	-0.18845876
141	0xbe7e11d0	-0.24811482
142	0xbe9eaa16	-0.3098914
143	0x3e232529	0.15932144
144	0x3e1e0437	0.15431295
145	0xbe3fd80e	-0.18734762
146	0xbd359269	-0.04432908
147	0xbd62cd5b	-0.055371623
148	0xbe98fd66	-0.29880828
149	0xbbca48e8	-0.006173242
150	0x3deb0c3c	0.11476943
151	0xbe0104ad	-0.1259944
152	0x3e159f5a	0.14611569
153	0x3e60e592	0.21962574
154	0x3d9b517d	0.07583902
155	0x3e4727dd	0.194488
156	0x3e43f90e	0.19137976
157	0x3e4693be	0.19392297
158	0x3e6b7532	0.22993925
159	0xbe7e3a41	-0.2482691
160	0xbe5c9c07	-0.21543895
161	0x3e00b00f	0.12567161
162	0x3e8c1931	0.2736297
163	0xbdd2cd67	-0.10293084
164	0x3db2104b	0.08694514
165	0x3e8e00b9	0.27734926
166	0x3e88be1c	0.26707542
167	0x3d6bfe10	0.05761534
168	0x3d95acb5	0.07308332
169	0xbeb8e3a2	-0.3611117
170	0xbe12e479	-0.14344968
171	0x3e105496	0.14094767
172	0x3df2ea95	0.11861149
173	0xbdd74142	-0.10510494
174	0xbe7a5afb	-0.24448769
175	0xbd61c13b	-0.05511592
176	0x3e873da8	0.26414227
177	0xbeafa49d	-0.34305277
178	0x3c8c20ad	0.017105425
179	0x3d87d46f	0.06632315
180	0x3ea6c466	0.32571715
181	0xbda74faa	-0.081694916
182	0x3e558381	0.20850946
183	0x3e7543fc	0.23951715
184	0xbe1d81b0	-0.15381503
185	0x3d8b72bb	0.068089925
186	0xbdb64390	-0.08899605
187	0x3e91d1e3	0.28480443
188	0x3e729466	0.23689422
189	0xbd027b7d	-0.03185605
190	0xbe1a9def	-0.1509931
191	0x3d8bfc8e	0.0683528
192	0xbe0e4a31	-0.1389549
193	0x3d9c64b9	0.07636399
194	0xbe7dab52	-0.24772385
195	0x3e17d962	0.14829019
196	0x3d089d35	0.03335305
197	0xbdeba336	-0.115057394
198	0x3e15bc3e	0.1462259
199	0xbd1e1420	-0.03859341
200	0xbd89c764	-0.06727484
201	0x3e859c31	0.26095727
202	0x3d041af1	0.032252256
203	0xbe904f82	-0.2818566
204	0xbe0bb17d	-0.13641925
205	0xbe7dfa22	-0.2480245
206	0x3dc9a961	0.098467596
207	0x3e05d4e8	0.13069499
208	0x3e917b31	0.284143
209	0xbe1bae6f	-0.1520326
210	0xbe8abedd	-0.27098742
211	0x3e862bcf	0.26205298
212	0x3db0c386	0.08631043
213	0xbca42fec	-0.020042382
214	0x3e317d0e	0.17332861
215	0xbe2df817	-0.1698917
216	0xbda054a6	-0.078286454
217	0x3e7c2435	0.24623187
218	0x3e1cba0e	0.15305349
219	0x3e2f558d	0.17122479
220	0x3eae1c7a	0.340061
221	0xbe2ace75	-0.1668032
222	0x3dbcbed4	0.09216085
223	0x3e512a1b	0.20426218
224	0xbe615db1	-0.22008397
225	0xbe27f58b	-0.16402261
226	0x3e666496	0.22499308
227	0x3cc73dcd	0.024321461
228	0xbc26d5f3	-0.010182845
229	0xbe809f4b	-0.2512153
230	0x3e21ca7e	0.15799901
231	0x3d371585	0.044698257
232	0xbe21a651	-0.15786101
233	0x3e8282e2	0.2549048
234	0x3d5db8da	0.054131366
235	0x3e0889fe	0.1333389
236	0xbdf7127e	-0.12064074
237	0x3cbd1c71	0.023084851
238	0xbcd11811	-0.025524171
239	0x3e81ce4b	0.25352702
240	0xbe97294f	-0.29523703
241	0x3ead6cbe	0.33872026
242	0xbe4d648a	-0.20057884
243	0x3d42146b	0.047382753
244	0xbcbdf35c	-0.023187332
245	0xbe27f24f	-0.16401027
246	0x3ed8b060	0.42322063
247	0x3e17c87c	0.14822572
248	0x3dd12b76	0.10213368
249	0xbe8261ed	-0.25465336
250	0x3e14fe02	0.14550021
251	0xbe773ce8	-0.24144328
252	0xbd923940	-0.07139826
253	0xbdca60bc	-0.09881732
254	0x3e454538	0.19264686
255	0x3e46b2c9	0.19404139

layer4.0.bias f4 [32]
0	0x3d73ff87	0.05956986
1	0x3d2c9ac8	0.0421398
2	0x3d9cb69e	0.07652019
3	0xbe01d4e4	-0.12678868
4	0x3d3dcad6	0.046336018
5	0x3dd422a6	0.10358171
6	0xbd2037c5	-0.039115686
7	0xbd410caf	-0.047131237
8	0x3e6f31b8	0.2335881
9	0x3e20fb57	0.15720879
10	0xbbe3ad03	-0.006948115
11	0x3e1becde	0.15227076
12	0x3e0b8c3b	0.13627712
13	0x3d14e32b	0.036349457
14	0x3cf2ffc7	0.02966298
15	0xbd2b10e0	-0.04176414
16	0x3df65e54	0.120297104
17	0xbd811c25	-0.06304196
18	0x3d29cbc4	0.04145409
19	0xbd49510a	-0.04914955
20	0x3da03f68	0.07824594
21	0xbd864af7	-0.06557267
22	0x3e0fbc53	0.14036684
23	0xbb813c94	-0.003943989
24	0xbcb52392	-0.022111688
25	0x3d786c08	0.0606499
26	0x3e03fcd1	0.1288941
27	0xbdd3b8ec	-0.103380054
28	0x3de79c87	0.11309152
29	0x3b3ee0d5	0.002912571
30	0x3dac4d39	0.084131666
31	0xbcdb8e80	-0.026801348

layer5.0.weight f4 [32, 32, 1, 1]
0	0x3e35b9a6	0.177466
1	0xbb6f0a09	-0.0036474487
2	0x3e05304c	0.13006705
3	0xbde012f8	-0.10941118
4	0xbe7ea44d	-0.24867363
5	0xbd422d1c	-0.0474063
6	0xbde562b0	-0.11200464
7	0xbd86df31	-0.06585539
8	0x3e164165	0.14673384
9	0x3e2e5de1	0.17028
10	0xbe7923d1	-0.24330069
11	0xbe8a439f	-0.27004716
12	0xbe868811	-0.26275685
13	0x3e3af130	0.18256068
14	0x3c130c73	0.008975136
15	0x3e637da8	0.22215903
16	0xbe67823e	-0.22608277
17	0xbe79288e	-0.24331877
18	0x3d361612	0.04445464
19	0xbd38b4f7	-0.045094457
20	0x3e338ad9	0.17533435
21	0x3e5c41db	0.21509497
22	0xbe83c700	-0.25737762
23	0xbdde8eda	-0.108670905
24	0xbe55de6b	-0.20885627
25	0x3d035e7c	0.03207253
26	0x3e4c73f6	0.1996611
27	0xbe89d0e0	-0.2691717
28	0x3e3e4b0a	0.18583313
29	0x3e6d5bc8	0.23179543
30	0x3d483ff9	0.048889134
31	0x3de563f1	0.11200703
32	0x3dd4c71f	0.10389542
33	0xbe80bce6	-0.25144118
34	0x3e82336a	0.2542985
35	0x3e29dd2b	0.16588275
36	0xbe1b3861	-0.15158226
37	0xbd2cc765	-0.042182345
38	0xbe858b69	-0.26082924
39	0x3c456d9d	0.01205006
40	0x3e1dfd27	0.15428601
41	0x3e5172a9	0.20453896
42	0xbddfbea8	-0.10925037
43	0x3db566ac	0.08857474
44	0xbc244ac6	-0.010027593
45	0x3e331fdc	0.17492622
46	0x3e991115	0.29895845
47	0xbe8ccb0e	-0.27498668
48	0xbe57833f	-0.2104616
49	0xbdea1754	-0.11430231
50	0x3d747866	0.059685133
51	0xbe610e35	-0.21978076
52	0xbe497fd6	-0.19677672
53	0xbdd9b041	-0.10629321
54	0xbe9a9624	-0.30192673
55	0xbe17508a	-0.14776817
56	0x3dc08447	0.0940023
57	0xbe4c827d	-0.19971652
58	0xbdf73392	-0.12070383
59	0x3e101e28	0.14074004
60	0xbc8d45d7	-0.017245216
61	0x3e3c5330	0.18391109
62	0x3e2aeb81	0.166914
63	0xbcaceabe	-0.021108028
64	0x3dc8a30d	0.097967245
65	0x3cf006de	0.02930015
66	0x3e4da3c8	0.20082009
67	0x3e913843	0.28363237
68	0x3e9017d5	0.28143182
69	0xbe3f1b2d	-0.1866271
70	0x3d8861ce	0.0665928
71	0xbe19025e	-0.1494231
72	0x3e5ae84a	0.21377674
73	0x3e4c35bb	0.19942372
74	0xbe6bd196	-0.2302917
75	0xbe2e20d7	-0.17004715
76	0x3dd4ce9b	0.10390969
77	0xbdef0dcb	-0.11672553
78	0x3e1c8c56	0.15287909
79	0x3d88f091	0.066865094
80	0x3e89aa41	0.26887706
81	0x3e277fae	0.163573
82	0xbe858022	-0.2607432
83	0xbe2b7ad1	-0.1674607
84	0x3e5bc2dc	0.21461052
85	0xbdda3759	-0.10655088
86	0xbe89258a	-0.26786453
87	0x3e4f40f1	0.20239617
88	0x3d08c824	0.033393994
89	0xbdf798f4	-0.1208972
90	0x3e8da383	0.27663812
91	0xbe933be2	-0.28756624
92	0xbc95a0c9	-0.018265145
93	0xbe106e98	-0.14104688
94	0x3e08bdfd	0.13353725
95	0x3e70692e	0.23477623
96	0x3e909ef8	0.28246284
97	0x3dcfdd76	0.10149662
98	0x3eb23d35	0.34812322
99	0xbc894acb	-0.016759297
100	0x3ddc8281	0.10767079
101	0x3e3aa64b	0.18227498
102	0xbd9e93ab	-0.07743009
103	0x3e8825f7	0.26591465
104	0xbca6f2e0	-0.020379484
105	0x3e84e044	0.2595235
106	0xbd8d0994	-0.068865925
107	0xbe5dc04b	-0.21655385
108	0xbe621e92	-0.22081974
109	0xbe55c892	-0.20877293
110	0xbe7d1d13	-0.24718122
111	0x3ca4913a	0.02008878
112	0x3e857bc8	0.26071
113	0xbe41cd82	-0.18926051
114	0x3e7eaa14	0.24869567
115	0xbd78b1d2	-0.060716458
116	0xbe215f50	-0.15759015
117	0x3dc3d283	0.09561636
118	0xbe501ec1	-0.20324232
119	0x3e9448cb	0.28961787
120	0x3ddf40c1	0.10901023
121	0x3d69fc4e	0.057125382
122	0xbe5be902	-0.21475604
123	0xbe983881	-0.2973061
124	0xbd14c460	-0.03632009
125	0xbe3a95a8	-0.18221152
126	0x3e92c0f1	0.28662828
127	0x3e0ec1a8	0.13941061
128	0x3e4edd67	0.20201646
129	0xbe438a68	-0.19095767
130	0xbe8b2817	-0.27179024
131	0xbe8adba2	-0.27120692
132	0xbdaa8e3f	-0.083279125
133	0x3d795e25	0.0608808
134	0xbd38039d	-0.04492532
135	0xbe6bf994	-0.23044425
136	0xbea35871	-0.31903413
137	0xbe8969e5	-0.26838604
138	0xbe22cfa8	-0.15899527
139	0xbe9ef7bd	-0.31048384
140	0x3e37816f	0.17920469
141	0x3e03bc1d	0.12864728
142	0x3e471297	0.19440685
143	0x3d787469	0.060657892
144	0x3d9a3e38	0.075313985
145	0xbe86b16a	-0.2630723
146	0x3e851df3	0.25999412
147	0x3d958305	0.073003806
148	0x3caaffd9	0.02087395
149	0x3e876433	0.26443633
150	0x3cb821da	0.02247708
151	0xbe8e11f4	-0.27748072
152	0x3dea00cf	0.114259355
153	0xbe1ff38b	-0.15620248
154	0x3da04bde	0.078269705
155	0x3e551f0e	0.20812628
156	0xbe5c8c36	-0.21537861
157	0xbe8ba700	-0.27275848
158	0xbe513647	-0.20430861
159	0xbe6f8fc0	-0.2339468
160	0xbdbd2241	-0.09235049
161	0x3e6a4470	0.2287767
162	0xbdb4570a	-0.08805664
163	0xbd76970e	-0.06020265
164	0x3e2d9ef0	0.16955161
165	0xbde53a3f	-0.1119275
166	0xbe370e52	-0.17876557
167	0xbd17d243	-0.037065756
168	0x3e41fff0	0.18945289
169	0x3e7829a6	0.24234638
170	0x3dcb2596	0.09919278
171	0x3dc21ef4	0.0947856
172	0x3ab44d16	0.0013755884
173	0x3d5bba74	0.053644612
174	0xbe157ba5	-0.14597948
175	0x3ddda573	0.108225726
176	0xbbd52142	-0.006504209
177	0xbe5dcf8c	-0.21661204
178	0x3deb79b5	0.11497823
179	0xbd162834	-0.036659434
180	0xbe3b6e91	-0.18303896
181	0xbe2fb36f	-0.17158292
182	0x3dd314d1	0.10306705
183	0xbe95e5a6	-0.2927677
184	0x3e66e618	0.22548711
185	0xbd0509f7	-0.032480206
186	0x3ddd00ac	0.10791144
187	0x3d0ef67a	0.034903027
188	0x3e4224a7	0.18959294
189	0x3e036353	0.12830858
190	0xbe6d5e43	-0.23180489
191	0x3dfb0bd4	0.122581154
192	0x3d44f078	0.04808089
193	0xbe56ecee	-0.20988819
194	0x3e57748a	0.2104055
195	0x3db3873d	0.08766029
196	0x3d8e6434	0.06952706
197	0xbe3aa160	-0.18225622
198	0x3e2c064a	0.16799274
199	0xbe787e4e	-0.24266931
200	0xbe46aaaa	-0.1940104
201	0x3dab60cf	0.08368074
202	0x3d257477	0.040394273
203	0xbe9ef546	-0.31046504
204	0x3d82c130	0.06384504
205	0xbe933857	-0.2875392
206	0xbe2762ee	-0.16346332
207	0xbe6733d7	-0.22578369
208	0xbeaa03d3	-0.33206043
209	0xbd3d7235	-0.046251494
210	0x3e980370	0.29690123
211	0x3e8b53ab	0.2721227
212	0xbe6ce9d0	-0.23136067
213	0xbda13a54	-0.07872453
214	0xbc3439b1	-0.011000083
215	0xbe5376f3	-0.20650844
216	0xbe6e26f0	-0.23257041
217	0x3e4c77a4	0.19967514
218	0xbe59f3a3	-0.21284346
219	0x3df4e06a	0.11956866
220	0xbe5c30af	-0.21502946
221	0x3e8f501d	0.2799081
222	0x3e85397a	0.26020414
223	0xbdcd9eb6	-0.10040037
224	0xbe3823b7	-0.17982374
225	0xbe1b5072	-0.15167406
226	0xbdcc08d8	-0.09962624
227	0x3e9575b8	0.29191375
228	0x3e0fe3ec	0.14051789
229	0x3e3a7fed	0.18212862
230	0x3b25695e	0.0025239806
231	0x3d3f1ba6	0.046657227
232	0xbdf3379f	-0.11875843
233	0xbe92b68a	-0.2865489
234	0xbdc00892	-0.09376635
235	0xbe556dab	-0.20842616
236	0x3d8e96c0	0.06962347
237	0x3ea7b6ee	0.32756752
238	0x3bae2ef5	0.0053156563
239	0xbe086826	-0.1332098
240	0xbdfeae4f	-0.124355905
241	0xbd62c020	-0.055359006
242	0xbe9cbc9a	-0.30612642
243	0x3c5857cf	0.013204529
244	0x3e58cc5e	0.2117171
245	0xbd484883	-0.048897278
246	0xbe8a1905	-0.26972213
247	0xbe6880e2	-0.22705415
248	0x3e527d28	0.20555556
249	0xbe1db14a	-0.15399662
250	0x3e86e970	0.26349974
251	0xbe52ad2e	-0.20573875
252	0xbe4c274a	-0.19936863
253	0xbe5ad76c	-0.2137124
254	0x3e639d5c	0.22227997
255	0x3ea12f1c	0.31481254

layer5.0.bias f4 [32]
0	0x3de9dc81	0.11419011
1	0x3cfe8a72	0.031071875
2	0xbd13f01e	-0.036117665
3	0x3d606dad	0.054792095
4	0xbdc9eb37	-0.09859317
5	0x3dec1ceb	0.11528953
6	0xbdd0a44c	-0.10187587
7	0xbe142838	-0.14468467
8	0x3db9330a	0.09042938
9	0x3e1dced6	0.15410933
10	0x3e0204ea	0.12697187
11	0xbc6811df	-0.014164417
12	0x3e2c5411	0.16828944
13	0x3e0caf94	0.13738853
14	0x3e377d83	0.17918973
15	0xbd76b49d	-0.06023084
16	0xbe1ff20c	-0.15619677
17	0xbe2a334e	-0.16621134
18	0xbe0061d6	-0.12537321
19	0x3df63838	0.120224416
20	0xbd0edd28	-0.03487888
21	0x3df19e2a	0.117977455
22	0x3e3ed249	0.18634905
23	0x3e1be096	0.15222391
24	0x3e007992	0.12546375
25	0xbda90837	-0.0825352
26	0xbe0c52e6	-0.13703498
27	0xbe1e3cc0	-0.15452862
28	0xbddec3c7	-0.10877185
29	0x3dd8a599	0.1057846
30	0xbdaa7aa6	-0.083241746
31	0x3e435b0b	0.19077699

last_conv.0.weight f4 [1, 160, 1, 1]
0	0xbd8124ae	-0.06305824
1	0xbd853a6f	-0.06505286
2	0x3e08f17f	0.13373373
3	0xbd348da7	-0.044080403
4	0x3df7934c	0.120886415
5	0x3cd1a694	0.025592126
6	0xbe4d77dd	-0.20065255
7	0xbbbcac3a	-0.0057578357
8	0xbdbeee61	-0.09322811
9	0xbe306b6e	-0.17228481
10	0x3e1a7f06	0.15087518
11	0x3d891940	0.06694269
12	0xbe2ee5b1	-0.17079808
13	0xbd7b7d4c	-0.06139879
14	0xbe43edc3	-0.19133668
15	0xbd926f4a	-0.07150133
16	0x3d175f03	0.036955845
17	0xbd7d85b3	-0.061895084
18	0xbdc85bd2	-0.09783138
19	0x3c567e5e	0.013091652
20	0x3d7fcf15	0.06245335
21	0x3e30e4be	0.17274758
22	0x3e470def	0.19438909
23	0xbe5c9cc2	-0.21544173
24	0x3e4f5d99	0.20250548
25	0x3dd2074f	0.102553
26	0xbd7b3a76	-0.06133505
27	0x3d8103a1	0.0629952
28	0xbd0bda8e	-0.034143977
29	0x3ca9c0a5	0.020721743
30	0x3de22145	0.11041502
31	0x3e1d51e9	0.15363277
32	0xbb486b2d	-0.003058146
33	0xbe1a505b	-0.15069716
34	0x3d223146	0.039597772
35	0xbe2b5258	-0.1673063
36	0xbdcd9431	-0.10038031
37	0x3de17387	0.11008363
38	0xbe5fa36a	-0.21839681
39	0xbe0787ac	-0.13235348
40	0xbe138b8a	-0.14408699
41	0xbe111dad	-0.14171477
42	0xbc660023	-0.0140381185
43	0xbdf9f6c5	-0.12205271
44	0xbe447c95	-0.1918815
45	0xbe4de3a8	-0.20106375
46	0x3e1b7b54	0.15183765
47	0xbe39400b	-0.18090837
48	0xbcd4e2d2	-0.025987063
49	0x3bf29005	0.0074024224
50	0x3dada9ca	0.0847965
51	0x3e07a004	0.13244635
52	0xbe0d90bc	-0.13824743
53	0x3d3da47c	0.046299443
54	0xbe00ed0c	-0.12590426
55	0x3d2facc6	0.04288938
56	0x3e37bf63	0.17944102
57	0x3e28b0e7	0.16473733
58	0x3dc74b12	0.097311154
59	0xbdb97aeb	-0.09056648
60	0x3db50940	0.08839655
61	0x3e207df0	0.15673041
62	0xbdd28708	-0.102796614
63	0x3e673ca0	0.2258172
64	0xbd1df647	-0.038564947
65	0x3e1d838d	0.15382214
66	0x3e17403f	0.14770602
67	0xbd395e14	-0.045255736
68	0x3e0d2d83	0.13786893
69	0xbe426423	-0.18983512
70	0x3dcccc30	0.09999883
71	0x3d29dd37	0.041470733
72	0xbc4626af	-0.012094184
73	0x3e81c93f	0.2534885
74	0x3e725966	0.23666915
75	0x3c3dc829	0.011583366
76	0x3e26ac48	0.16276658
77	0xbc8c2fa9	-0.01711257
78	0x3da5aefe	0.08090018
79	0xba1e8c34	-0.00060481136
80	0x3ac8c33d	0.0015316975
81	0x3d3c1cb8	0.045925826
82	0xbe23d281	-0.1599827
83	0xbe43966b	-0.19100349
84	0xbd2d8272	-0.04236073
85	0x3de719f3	0.11284246
86	0x3e17a6f7	0.14809786
87	0x3e0291d5	0.12750943
88	0x3e083af2	0.13303736
89	0xbe22a3ef	-0.15882848
90	0x3c09f725	0.00842074
91	0xbe14469f	-0.14480065
92	0xbe27824b	-0.16358297
93	0x3de4801b	0.11157247
94	0xbe4176c2	-0.18892959
95	0xbe3226c7	-0.17397605
96	0x3ddfc4cb	0.10926207
97	0xbbd772c8	-0.0065749623
98	0x3e0690f8	0.13141239
99	0x3e07ccd7	0.13261734
100	0x3e0310fa	0.12799445
101	0xbe0ef180	-0.13959312
102	0x3c392197	0.011299512
103	0x3dd07293	0.10178103
104	0x3e20cf88	0.15704167
105	0x3dbc330d	0.09189425
106	0x3e5bb5b8	0.21456039
107	0xbce4bc54	-0.027921833
108	0xbe22a7c1	-0.15884306
109	0x3e4e8872	0.20169237
110	0x3ba55a83	0.00504619
111	0xbe53cba1	-0.20683147
112	0x3e611d21	0.21983768
113	0x3e7c8606	0.24660501
114	0xbe454e1a	-0.19268075
115	0xbe2401f8	-0.16016376
116	0xbe408087	-0.1879903
117	0x3e15814f	0.14600109
118	0xbe41de4c	-0.18932456
119	0x3e7bf5d0	0.24605489
120	0x3e4b689c	0.19864124
121	0xbdb53323	-0.08847644
122	0x3e2e7303	0.17036061
123	0xbe0ebcdb	-0.1393923
124	0x3ccc9457	0.024973078
125	0xbde9925a	-0.114048675
126	0xbd802c21	-0.06258417
127	0x3e4f8854	0.20266849
128	0xbd2aba20	-0.04168141
129	0x3d4093e3	0.047016036
130	0x3e111052	0.14166382
131	0x3e09e8de	0.13467738
132	0xbe1cccb2	-0.1531246
133	0xbd56cccb	-0.0524414
134	0xbe302d68	-0.17204821
135	0x3e301182	0.17194179
136	0x3da2b238	0.07944149
137	0x3e035768	0.12826312
138	0xbe468403	-0.19386296
139	0x3dddf03e	0.10836838
140	0xbe435e44	-0.19078928
141	0xbdd601ba	-0.10449548
142	0x3d92283f	0.071365826
143	0x3e03c122	0.12866643
144	0xbe03fda3	-0.12889723
145	0x3e0981f5	0.13428481
146	0x3dde38c8	0.10850674
147	0x3e3ad471	0.18245102
148	0x3db6c376	0.08924
149	0xbe498988	-0.1968137
150	0x3e111acf	0.14170383
151	0xbd8d7424	-0.06906918
152	0xbda592d9	-0.080846496
153	0x3dc67011	0.09689344
154	0xbd4c3f81	-0.04986525
155	0xbd9106a8	-0.07081348
156	0x3e0b753a	0.13618937
157	0xbdd39de3	-0.10332849
158	0x3e1b0025	0.15136774
159	0x3cd65fc4	0.026168711

exp_avg f4 [32, 3, 1, 1]
0	0x37539f17	1.2613621e-05
1	0x37609eb2	1.338839e-05
2	0x37a9a55d	2.0223373e-05
3	0xb3165bd8	-3.5008128e-08
4	0xb501eaf7	-4.8398164e-07
5	0xb5c26ce5	-1.4485819e-06
6	0x37394d54	1.1044864e-05
7	0x367e91d7	3.793384e-06
8	0xb70b1016	-8.288791e-06
9	0x368de3f1	4.2286633e-06
10	0xb3118270	-3.3879076e-08
11	0xb6ef2ed2	-7.1282057e-06
12	0x37a2eb86	1.9421579e-05
13	0x37927469	1.7458764e-05
14	0x37b861a2	2.1979973e-05
15	0xb7a7e22a	-2.0013267e-05
16	0xb7828cc5	-1.5562759e-05
17	0xb743b453	-1.1664891e-05
18	0x3799a135	1.831409e-05
19	0x37837a24	1.5673293e-05
20	0x37915044	1.7322724e-05
21	0x38023cf0	3.1051168e-05
22	0x37d76d07	2.5680767e-05
23	0x37de4cae	2.6500169e-05
24	0x3706b6c3	8.029575e-06
25	0x36d3d0a0	6.312577e-06
26	0x3692eae7	4.3784853e-06
27	0xb7745c8e	-1.4565083e-05
28	0xb729e5fd	-1.0126733e-05
29	0xb68ff0aa	-4.289749e-06
30	0x37bf1fdf	2.2783815e-05
31	0x3766b338	1.3750796e-05
32	0xb60cc96d	-2.097887e-06
33	0x3791ca70	1.7379614e-05
34	0x3767f7bd	1.3826354e-05
35	0x374f2638	1.234706e-05
36	0x36db251c	6.5310287e-06
37	0x36b9cf40	5.5375567e-06
38	0x36cae51b	6.0467405e-06
39	0xb7e3284c	-2.7079273e-05
40	0xb7c3c476	-2.3337296e-05
41	0xb7bc526c	-2.2449727e-05
42	0xb6afd7d8	-5.240534e-06
43	0xb670adea	-3.5864018e-06
44	0xb5fe0eab	-1.8928744e-06
45	0x371bc86e	9.285386e-06
46	0x3711a5c8	8.681272e-06
47	0x372b55a9	1.0212339e-05
48	0x36ec26af	7.0378514e-06
49	0x36b82150	5.4875054e-06
50	0x3683b573	3.9252277e-06
51	0x37888e01	1.627859e-05
52	0x37892295	1.6347776e-05
53	0x37c53119	2.3507093e-05
54	0x35934a75	1.0974023e-06
55	0x3576e0b0	9.1969105e-07
56	0x35544abc	7.9084907e-07
57	0x369db1e7	4.699675e-06
58	0x36a672d4	4.9605533e-06
59	0x3702f7c2	7.806289e-06
60	0x37bcdcca	2.251416e-05
61	0x3767055a	1.3769919e-05
62	0x34395d49	1.7263405e-07
63	0x378282bc	1.5558086e-05
64	0x3710e61b	8.636644e-06
65	0xb6176491	-2.255929e-06
66	0x38059b33	3.185421e-05
67	0x37aba253	2.0460377e-05
68	0x36491771	2.9964979e-06
69	0x3802a101	3.1144362e-05
70	0x37f9b2e4	2.9766416e-05
71	0x3822b432	3.879163e-05
72	0x37059fb5	7.964602e-06
73	0x368aaf1d	4.1331064e-06
74	0xb556129b	-7.9748287e-07
75	0x36d922f5	6.4711735e-06
76	0x365fd521	3.3353647e-06
77	0xb5ccee88	-1.5268606e-06
78	0xb5b74323	-1.3654102e-06
79	0xb636c7be	-2.7236379e-06
80	0xb6e0ee2f	-6.7034484e-06
81	0x37461abf	1.1807947e-05
82	0x36ff0350	7.599978e-06
83	0x355c57c3	8.2084097e-07
84	0x372a2296	1.0140842e-05
85	0x36dee453	6.642696e-06
86	0x358352f9	9.784409e-07
87	0x368295f5	3.891759e-06
88	0x3646e0f9	2.963525e-06
89	0x364b7521	3.0317535e-06
90	0x37604c1b	1.336916e-05
91	0x372560c6	9.857298e-06
92	0x36e2d726	6.7603714e-06
93	0x37b60a6d	2.1700946e-05
94	0x37b19ba8	2.1172527e-05
95	0x37ed0f3f	2.8259701e-05

exp_avg_sq f4 [32, 3, 1, 1]
0	0x324da697	1.1970449e-08
1	0x311a233d	2.242998e-09
2	0x30ab8467	1.2479519e-09
3	0x319304d4	4.278812e-09
4	0x3157e783	3.1418217e-09
5	0x3123b5c2	2.382294e-09
6	0x3393af04	6.877056e-08
7	0x32ac63da	2.0068843e-08
8	0x325dafbb	1.29038495e-08
9	0x32dea951	2.5921198e-08
10	0x31d35ba7	6.151328e-09
11	0x317fe080	3.7234997e-09
12	0x320c3157	8.160291e-09
13	0x311a01ac	2.24109e-09
14	0x30c6f40d	1.447576e-09
15	0x3190bb06	4.2122137e-09
16	0x309dba72	1.1476244e-09
17	0x3044545f	7.1424283e-10
18	0x332d5e84	4.0365663e-08
19	0x325ead76	1.2961541e-08
20	0x32145523	8.634092e-09
21	0x3263393d	1.32261535e-08
22	0x31532844	3.072743e-09
23	0x3101c47f	1.8883666e-09
24	0x31e91f12	6.784725e-09
25	0x311c30e1	2.2728772e-09
26	0x30d1c617	1.5263052e-09
27	0x32417acc	1.1261999e-08
28	0x31fe2e65	7.3976474e-09
29	0x31bed3c4	5.5538028e-09
30	0x3301bdc1	3.0207733e-08
31	0x31e2bcae	6.598916e-09
32	0x31845899	3.851778e-09
33	0x312adf7f	2.4865299e-09
34	0x306089ad	8.1686374e-10
35	0x3014f0c8	5.4184257e-10
36	0x2febc8ba	4.2888876e-10
37	0x2f08895c	1.2417928e-10
38	0x2eb1c3b3	8.083791e-11
39	0x331f7e46	3.7134917e-08
40	0x31edbc81	6.9190382e-09
41	0x317e363c	3.6992693e-09
42	0x32b5a79f	2.1147398e-08
43	0x32282b3f	9.78872e-09
44	0x31f1ad97	7.033758e-09
45	0x32de82ea	2.5903734e-08
46	0x3216d7f8	8.780255e-09
47	0x31cb9f08	5.9261573e-09
48	0x3073199a	8.8439267e-10
49	0x2f441b3b	1.783577e-10
50	0x2edd2d75	1.0057991e-10
51	0x32c05f26	2.239501e-08
52	0x31c1d33c	5.641054e-09
53	0x317273bc	3.5281422e-09
54	0x303b0476	6.8036543e-10
55	0x2f2d59c3	1.5766148e-10
56	0x2ec8a25c	9.123788e-11
57	0x316ae5a1	3.418201e-09
58	0x30d5f956	1.5568655e-09
59	0x30993e2b	1.1149884e-09
60	0x324c4bfa	1.1891638e-08
61	0x30f03bab	1.7479257e-09
62	0x305f7ba6	8.130264e-10
63	0x32ff6a9e	2.9734391e-08
64	0x323d4f85	1.1019329e-08
65	0x3202064c	7.568428e-09
66	0x3381c6f7	6.043222e-08
67	0x32b28e6f	2.0786699e-08
68	0x326fc1e6	1.3955718e-08
69	0x33ae6047	8.120019e-08
70	0x32ba2d68	2.1673898e-08
71	0x326b726a	1.3704815e-08
72	0x328e5313	1.6568753e-08
73	0x31cf457b	6.032392e-09
74	0x318e0b39	4.13402e-09
75	0x320dabc6	8.246337e-09
76	0x31181aa3	2.2134052e-09
77	0x30c08282	1.4006931e-09
78	0x31eeebe7	6.9535306e-09
79	0x3134fabc	2.6335973e-09
80	0x30f7751f	1.8004903e-09
81	0x322c881d	1.0042666e-08
82	0x31ce49c5	6.0037757e-09
83	0x3199009d	4.452956e-09
84	0x313c4d4b	2.7401537e-09
85	0x30226c29	5.908896e-10
86	0x2fb7910a	3.3390563e-10
87	0x309364f9	1.0724356e-09
88	0x2f6c191a	2.1472993e-10
89	0x2ef397e3	1.1077341e-10
90	0x306da3ae	8.64527e-10
91	0x2fe209d4	4.1116144e-10
92	0x2f9f7d99	2.9011174e-10
93	0x3329bad6	3.9518305e-08
94	0x31fb1047	7.306912e-09
95	0x3189a0dd	4.005513e-09

exp_avg f4 [32]
0	0x36acdf3f	5.1519887e-06
1	0xb5b3dab1	-1.3400187e-06
2	0xb6dfde51	-6.671799e-06
3	0xb43f9604	-1.7842837e-07
4	0x3596d9da	1.1239274e-06
5	0xb689d85a	-4.108105e-06
6	0xb64d1efc	-3.0565416e-06
7	0xb74d4e2d	-1.2237154e-05
8	0x336306ce	5.2858745e-08
9	0xb62e5e3c	-2.5982872e-06
10	0xb68f43ff	-4.269648e-06
11	0xb6122275	-2.1775752e-06
12	0xb63caa1d	-2.8113202e-06
13	0xb7162b91	-8.95084e-06
14	0xb5ded632	-1.6602628e-06
15	0x362bd10b	2.5602665e-06
16	0xb65d3aba	-3.296575e-06
17	0x351ef00c	5.92089e-07
18	0xb49d9bba	-2.9356835e-07
19	0x35d4def5	1.586012e-06
20	0xb6d26a71	-6.270879e-06
21	0x35001bf2	4.772438e-07
22	0xb659ce08	-3.2455446e-06
23	0x36d70594	6.4081487e-06
24	0xb5a746d2	-1.2463081e-06
25	0xb573f9c6	-9.088802e-07
26	0xb642972c	-2.8996246e-06
27	0xb618914b	-2.2734337e-06
28	0xb5513c3a	-7.794621e-07
29	0x34839b18	2.4513497e-07
30	0xb6630249	-3.3826966e-06
31	0x35229387	6.0564383e-07

exp_avg_sq f4 [32]
0	0x31821fce	3.7871137e-09
1	0x2ee16d37	1.0251216e-10
2	0x312ca0bc	2.512066e-09
3	0x30922a72	1.0634962e-09
4	0x31a4c594	4.7954902e-09
5	0x2ff45d67	4.4449708e-10
6	0x32444e0c	1.1426447e-08
7	0x322361c0	9.5100745e-09
8	0x2f82fc1c	2.3825997e-10
9	0x2fa05113	2.9161437e-10
10	0x317f4535	3.7146723e-09
11	0x30dfddbc	1.6288406e-09
12	0x2fc58290	3.5926861e-10
13	0x3130a85b	2.570707e-09
14	0x2ffd92bb	4.612469e-10
15	0x316df36c	3.4626408e-09
16	0x2fa19f2d	2.939883e-10
17	0x31feb413	7.412845e-09
18	0x2e045106	3.008529e-11
19	0x307761f7	8.9997293e-10
20	0x30a589fe	1.204455e-09
21	0x30aec776	1.2716856e-09
22	0x31733bbb	3.5395107e-09
23	0x32d4213e	2.4695165e-08
24	0x2f941829	2.693821e-10
25	0x2fc5facb	3.601229e-10
26	0x30436ed1	7.1098066e-10
27	0x3075a200	8.9360697e-10
28	0x2f7e640a	2.3136706e-10
29	0x2fd5440a	3.879282e-10
30	0x302946b8	6.158234e-10
31	0x323837c1	1.0722887e-08
